模型路径: /root/space/models/codellama/CodeLlama-13b-Instruct-hf/main
所有modules:
LlamaForCausalLM(
  (model): LlamaModel(
    (embed_tokens): Embedding(32016, 5120)
    (layers): ModuleList(
      (0): LlamaDecoderLayer(
        (self_attn): LlamaAttention(
          (q_proj): Linear(in_features=5120, out_features=5120, bias=False)
          (k_proj): Linear(in_features=5120, out_features=5120, bias=False)
          (v_proj): Linear(in_features=5120, out_features=5120, bias=False)
          (o_proj): Linear(in_features=5120, out_features=5120, bias=False)
          (rotary_emb): LlamaRotaryEmbedding()
        )
        (mlp): LlamaMLP(
          (gate_proj): Linear(in_features=5120, out_features=13824, bias=False)
          (up_proj): Linear(in_features=5120, out_features=13824, bias=False)
          (down_proj): Linear(in_features=13824, out_features=5120, bias=False)
          (act_fn): SiLUActivation()
        )
        (input_layernorm): LlamaRMSNorm()
        (post_attention_layernorm): LlamaRMSNorm()
      )
      (1): LlamaDecoderLayer(
        (self_attn): LlamaAttention(
          (q_proj): Linear(in_features=5120, out_features=5120, bias=False)
          (k_proj): Linear(in_features=5120, out_features=5120, bias=False)
          (v_proj): Linear(in_features=5120, out_features=5120, bias=False)
          (o_proj): Linear(in_features=5120, out_features=5120, bias=False)
          (rotary_emb): LlamaRotaryEmbedding()
        )
        (mlp): LlamaMLP(
          (gate_proj): Linear(in_features=5120, out_features=13824, bias=False)
          (up_proj): Linear(in_features=5120, out_features=13824, bias=False)
          (down_proj): Linear(in_features=13824, out_features=5120, bias=False)
          (act_fn): SiLUActivation()
        )
        (input_layernorm): LlamaRMSNorm()
        (post_attention_layernorm): LlamaRMSNorm()
      )
      (2): LlamaDecoderLayer(
        (self_attn): LlamaAttention(
          (q_proj): Linear(in_features=5120, out_features=5120, bias=False)
          (k_proj): Linear(in_features=5120, out_features=5120, bias=False)
          (v_proj): Linear(in_features=5120, out_features=5120, bias=False)
          (o_proj): Linear(in_features=5120, out_features=5120, bias=False)
          (rotary_emb): LlamaRotaryEmbedding()
        )
        (mlp): LlamaMLP(
          (gate_proj): Linear(in_features=5120, out_features=13824, bias=False)
          (up_proj): Linear(in_features=5120, out_features=13824, bias=False)
          (down_proj): Linear(in_features=13824, out_features=5120, bias=False)
          (act_fn): SiLUActivation()
        )
        (input_layernorm): LlamaRMSNorm()
        (post_attention_layernorm): LlamaRMSNorm()
      )
      (3): LlamaDecoderLayer(
        (self_attn): LlamaAttention(
          (q_proj): Linear(in_features=5120, out_features=5120, bias=False)
          (k_proj): Linear(in_features=5120, out_features=5120, bias=False)
          (v_proj): Linear(in_features=5120, out_features=5120, bias=False)
          (o_proj): Linear(in_features=5120, out_features=5120, bias=False)
          (rotary_emb): LlamaRotaryEmbedding()
        )
        (mlp): LlamaMLP(
          (gate_proj): Linear(in_features=5120, out_features=13824, bias=False)
          (up_proj): Linear(in_features=5120, out_features=13824, bias=False)
          (down_proj): Linear(in_features=13824, out_features=5120, bias=False)
          (act_fn): SiLUActivation()
        )
        (input_layernorm): LlamaRMSNorm()
        (post_attention_layernorm): LlamaRMSNorm()
      )
      (4): LlamaDecoderLayer(
        (self_attn): LlamaAttention(
          (q_proj): Linear(in_features=5120, out_features=5120, bias=False)
          (k_proj): Linear(in_features=5120, out_features=5120, bias=False)
          (v_proj): Linear(in_features=5120, out_features=5120, bias=False)
          (o_proj): Linear(in_features=5120, out_features=5120, bias=False)
          (rotary_emb): LlamaRotaryEmbedding()
        )
        (mlp): LlamaMLP(
          (gate_proj): Linear(in_features=5120, out_features=13824, bias=False)
          (up_proj): Linear(in_features=5120, out_features=13824, bias=False)
          (down_proj): Linear(in_features=13824, out_features=5120, bias=False)
          (act_fn): SiLUActivation()
        )
        (input_layernorm): LlamaRMSNorm()
        (post_attention_layernorm): LlamaRMSNorm()
      )
      (5): LlamaDecoderLayer(
        (self_attn): LlamaAttention(
          (q_proj): Linear(in_features=5120, out_features=5120, bias=False)
          (k_proj): Linear(in_features=5120, out_features=5120, bias=False)
          (v_proj): Linear(in_features=5120, out_features=5120, bias=False)
          (o_proj): Linear(in_features=5120, out_features=5120, bias=False)
          (rotary_emb): LlamaRotaryEmbedding()
        )
        (mlp): LlamaMLP(
          (gate_proj): Linear(in_features=5120, out_features=13824, bias=False)
          (up_proj): Linear(in_features=5120, out_features=13824, bias=False)
          (down_proj): Linear(in_features=13824, out_features=5120, bias=False)
          (act_fn): SiLUActivation()
        )
        (input_layernorm): LlamaRMSNorm()
        (post_attention_layernorm): LlamaRMSNorm()
      )
      (6): LlamaDecoderLayer(
        (self_attn): LlamaAttention(
          (q_proj): Linear(in_features=5120, out_features=5120, bias=False)
          (k_proj): Linear(in_features=5120, out_features=5120, bias=False)
          (v_proj): Linear(in_features=5120, out_features=5120, bias=False)
          (o_proj): Linear(in_features=5120, out_features=5120, bias=False)
          (rotary_emb): LlamaRotaryEmbedding()
        )
        (mlp): LlamaMLP(
          (gate_proj): Linear(in_features=5120, out_features=13824, bias=False)
          (up_proj): Linear(in_features=5120, out_features=13824, bias=False)
          (down_proj): Linear(in_features=13824, out_features=5120, bias=False)
          (act_fn): SiLUActivation()
        )
        (input_layernorm): LlamaRMSNorm()
        (post_attention_layernorm): LlamaRMSNorm()
      )
      (7): LlamaDecoderLayer(
        (self_attn): LlamaAttention(
          (q_proj): Linear(in_features=5120, out_features=5120, bias=False)
          (k_proj): Linear(in_features=5120, out_features=5120, bias=False)
          (v_proj): Linear(in_features=5120, out_features=5120, bias=False)
          (o_proj): Linear(in_features=5120, out_features=5120, bias=False)
          (rotary_emb): LlamaRotaryEmbedding()
        )
        (mlp): LlamaMLP(
          (gate_proj): Linear(in_features=5120, out_features=13824, bias=False)
          (up_proj): Linear(in_features=5120, out_features=13824, bias=False)
          (down_proj): Linear(in_features=13824, out_features=5120, bias=False)
          (act_fn): SiLUActivation()
        )
        (input_layernorm): LlamaRMSNorm()
        (post_attention_layernorm): LlamaRMSNorm()
      )
      (8): LlamaDecoderLayer(
        (self_attn): LlamaAttention(
          (q_proj): Linear(in_features=5120, out_features=5120, bias=False)
          (k_proj): Linear(in_features=5120, out_features=5120, bias=False)
          (v_proj): Linear(in_features=5120, out_features=5120, bias=False)
          (o_proj): Linear(in_features=5120, out_features=5120, bias=False)
          (rotary_emb): LlamaRotaryEmbedding()
        )
        (mlp): LlamaMLP(
          (gate_proj): Linear(in_features=5120, out_features=13824, bias=False)
          (up_proj): Linear(in_features=5120, out_features=13824, bias=False)
          (down_proj): Linear(in_features=13824, out_features=5120, bias=False)
          (act_fn): SiLUActivation()
        )
        (input_layernorm): LlamaRMSNorm()
        (post_attention_layernorm): LlamaRMSNorm()
      )
      (9): LlamaDecoderLayer(
        (self_attn): LlamaAttention(
          (q_proj): Linear(in_features=5120, out_features=5120, bias=False)
          (k_proj): Linear(in_features=5120, out_features=5120, bias=False)
          (v_proj): Linear(in_features=5120, out_features=5120, bias=False)
          (o_proj): Linear(in_features=5120, out_features=5120, bias=False)
          (rotary_emb): LlamaRotaryEmbedding()
        )
        (mlp): LlamaMLP(
          (gate_proj): Linear(in_features=5120, out_features=13824, bias=False)
          (up_proj): Linear(in_features=5120, out_features=13824, bias=False)
          (down_proj): Linear(in_features=13824, out_features=5120, bias=False)
          (act_fn): SiLUActivation()
        )
        (input_layernorm): LlamaRMSNorm()
        (post_attention_layernorm): LlamaRMSNorm()
      )
      (10): LlamaDecoderLayer(
        (self_attn): LlamaAttention(
          (q_proj): Linear(in_features=5120, out_features=5120, bias=False)
          (k_proj): Linear(in_features=5120, out_features=5120, bias=False)
          (v_proj): Linear(in_features=5120, out_features=5120, bias=False)
          (o_proj): Linear(in_features=5120, out_features=5120, bias=False)
          (rotary_emb): LlamaRotaryEmbedding()
        )
        (mlp): LlamaMLP(
          (gate_proj): Linear(in_features=5120, out_features=13824, bias=False)
          (up_proj): Linear(in_features=5120, out_features=13824, bias=False)
          (down_proj): Linear(in_features=13824, out_features=5120, bias=False)
          (act_fn): SiLUActivation()
        )
        (input_layernorm): LlamaRMSNorm()
        (post_attention_layernorm): LlamaRMSNorm()
      )
      (11): LlamaDecoderLayer(
        (self_attn): LlamaAttention(
          (q_proj): Linear(in_features=5120, out_features=5120, bias=False)
          (k_proj): Linear(in_features=5120, out_features=5120, bias=False)
          (v_proj): Linear(in_features=5120, out_features=5120, bias=False)
          (o_proj): Linear(in_features=5120, out_features=5120, bias=False)
          (rotary_emb): LlamaRotaryEmbedding()
        )
        (mlp): LlamaMLP(
          (gate_proj): Linear(in_features=5120, out_features=13824, bias=False)
          (up_proj): Linear(in_features=5120, out_features=13824, bias=False)
          (down_proj): Linear(in_features=13824, out_features=5120, bias=False)
          (act_fn): SiLUActivation()
        )
        (input_layernorm): LlamaRMSNorm()
        (post_attention_layernorm): LlamaRMSNorm()
      )
      (12): LlamaDecoderLayer(
        (self_attn): LlamaAttention(
          (q_proj): Linear(in_features=5120, out_features=5120, bias=False)
          (k_proj): Linear(in_features=5120, out_features=5120, bias=False)
          (v_proj): Linear(in_features=5120, out_features=5120, bias=False)
          (o_proj): Linear(in_features=5120, out_features=5120, bias=False)
          (rotary_emb): LlamaRotaryEmbedding()
        )
        (mlp): LlamaMLP(
          (gate_proj): Linear(in_features=5120, out_features=13824, bias=False)
          (up_proj): Linear(in_features=5120, out_features=13824, bias=False)
          (down_proj): Linear(in_features=13824, out_features=5120, bias=False)
          (act_fn): SiLUActivation()
        )
        (input_layernorm): LlamaRMSNorm()
        (post_attention_layernorm): LlamaRMSNorm()
      )
      (13): LlamaDecoderLayer(
        (self_attn): LlamaAttention(
          (q_proj): Linear(in_features=5120, out_features=5120, bias=False)
          (k_proj): Linear(in_features=5120, out_features=5120, bias=False)
          (v_proj): Linear(in_features=5120, out_features=5120, bias=False)
          (o_proj): Linear(in_features=5120, out_features=5120, bias=False)
          (rotary_emb): LlamaRotaryEmbedding()
        )
        (mlp): LlamaMLP(
          (gate_proj): Linear(in_features=5120, out_features=13824, bias=False)
          (up_proj): Linear(in_features=5120, out_features=13824, bias=False)
          (down_proj): Linear(in_features=13824, out_features=5120, bias=False)
          (act_fn): SiLUActivation()
        )
        (input_layernorm): LlamaRMSNorm()
        (post_attention_layernorm): LlamaRMSNorm()
      )
      (14): LlamaDecoderLayer(
        (self_attn): LlamaAttention(
          (q_proj): Linear(in_features=5120, out_features=5120, bias=False)
          (k_proj): Linear(in_features=5120, out_features=5120, bias=False)
          (v_proj): Linear(in_features=5120, out_features=5120, bias=False)
          (o_proj): Linear(in_features=5120, out_features=5120, bias=False)
          (rotary_emb): LlamaRotaryEmbedding()
        )
        (mlp): LlamaMLP(
          (gate_proj): Linear(in_features=5120, out_features=13824, bias=False)
          (up_proj): Linear(in_features=5120, out_features=13824, bias=False)
          (down_proj): Linear(in_features=13824, out_features=5120, bias=False)
          (act_fn): SiLUActivation()
        )
        (input_layernorm): LlamaRMSNorm()
        (post_attention_layernorm): LlamaRMSNorm()
      )
      (15): LlamaDecoderLayer(
        (self_attn): LlamaAttention(
          (q_proj): Linear(in_features=5120, out_features=5120, bias=False)
          (k_proj): Linear(in_features=5120, out_features=5120, bias=False)
          (v_proj): Linear(in_features=5120, out_features=5120, bias=False)
          (o_proj): Linear(in_features=5120, out_features=5120, bias=False)
          (rotary_emb): LlamaRotaryEmbedding()
        )
        (mlp): LlamaMLP(
          (gate_proj): Linear(in_features=5120, out_features=13824, bias=False)
          (up_proj): Linear(in_features=5120, out_features=13824, bias=False)
          (down_proj): Linear(in_features=13824, out_features=5120, bias=False)
          (act_fn): SiLUActivation()
        )
        (input_layernorm): LlamaRMSNorm()
        (post_attention_layernorm): LlamaRMSNorm()
      )
      (16): LlamaDecoderLayer(
        (self_attn): LlamaAttention(
          (q_proj): Linear(in_features=5120, out_features=5120, bias=False)
          (k_proj): Linear(in_features=5120, out_features=5120, bias=False)
          (v_proj): Linear(in_features=5120, out_features=5120, bias=False)
          (o_proj): Linear(in_features=5120, out_features=5120, bias=False)
          (rotary_emb): LlamaRotaryEmbedding()
        )
        (mlp): LlamaMLP(
          (gate_proj): Linear(in_features=5120, out_features=13824, bias=False)
          (up_proj): Linear(in_features=5120, out_features=13824, bias=False)
          (down_proj): Linear(in_features=13824, out_features=5120, bias=False)
          (act_fn): SiLUActivation()
        )
        (input_layernorm): LlamaRMSNorm()
        (post_attention_layernorm): LlamaRMSNorm()
      )
      (17): LlamaDecoderLayer(
        (self_attn): LlamaAttention(
          (q_proj): Linear(in_features=5120, out_features=5120, bias=False)
          (k_proj): Linear(in_features=5120, out_features=5120, bias=False)
          (v_proj): Linear(in_features=5120, out_features=5120, bias=False)
          (o_proj): Linear(in_features=5120, out_features=5120, bias=False)
          (rotary_emb): LlamaRotaryEmbedding()
        )
        (mlp): LlamaMLP(
          (gate_proj): Linear(in_features=5120, out_features=13824, bias=False)
          (up_proj): Linear(in_features=5120, out_features=13824, bias=False)
          (down_proj): Linear(in_features=13824, out_features=5120, bias=False)
          (act_fn): SiLUActivation()
        )
        (input_layernorm): LlamaRMSNorm()
        (post_attention_layernorm): LlamaRMSNorm()
      )
      (18): LlamaDecoderLayer(
        (self_attn): LlamaAttention(
          (q_proj): Linear(in_features=5120, out_features=5120, bias=False)
          (k_proj): Linear(in_features=5120, out_features=5120, bias=False)
          (v_proj): Linear(in_features=5120, out_features=5120, bias=False)
          (o_proj): Linear(in_features=5120, out_features=5120, bias=False)
          (rotary_emb): LlamaRotaryEmbedding()
        )
        (mlp): LlamaMLP(
          (gate_proj): Linear(in_features=5120, out_features=13824, bias=False)
          (up_proj): Linear(in_features=5120, out_features=13824, bias=False)
          (down_proj): Linear(in_features=13824, out_features=5120, bias=False)
          (act_fn): SiLUActivation()
        )
        (input_layernorm): LlamaRMSNorm()
        (post_attention_layernorm): LlamaRMSNorm()
      )
      (19): LlamaDecoderLayer(
        (self_attn): LlamaAttention(
          (q_proj): Linear(in_features=5120, out_features=5120, bias=False)
          (k_proj): Linear(in_features=5120, out_features=5120, bias=False)
          (v_proj): Linear(in_features=5120, out_features=5120, bias=False)
          (o_proj): Linear(in_features=5120, out_features=5120, bias=False)
          (rotary_emb): LlamaRotaryEmbedding()
        )
        (mlp): LlamaMLP(
          (gate_proj): Linear(in_features=5120, out_features=13824, bias=False)
          (up_proj): Linear(in_features=5120, out_features=13824, bias=False)
          (down_proj): Linear(in_features=13824, out_features=5120, bias=False)
          (act_fn): SiLUActivation()
        )
        (input_layernorm): LlamaRMSNorm()
        (post_attention_layernorm): LlamaRMSNorm()
      )
      (20): LlamaDecoderLayer(
        (self_attn): LlamaAttention(
          (q_proj): Linear(in_features=5120, out_features=5120, bias=False)
          (k_proj): Linear(in_features=5120, out_features=5120, bias=False)
          (v_proj): Linear(in_features=5120, out_features=5120, bias=False)
          (o_proj): Linear(in_features=5120, out_features=5120, bias=False)
          (rotary_emb): LlamaRotaryEmbedding()
        )
        (mlp): LlamaMLP(
          (gate_proj): Linear(in_features=5120, out_features=13824, bias=False)
          (up_proj): Linear(in_features=5120, out_features=13824, bias=False)
          (down_proj): Linear(in_features=13824, out_features=5120, bias=False)
          (act_fn): SiLUActivation()
        )
        (input_layernorm): LlamaRMSNorm()
        (post_attention_layernorm): LlamaRMSNorm()
      )
      (21): LlamaDecoderLayer(
        (self_attn): LlamaAttention(
          (q_proj): Linear(in_features=5120, out_features=5120, bias=False)
          (k_proj): Linear(in_features=5120, out_features=5120, bias=False)
          (v_proj): Linear(in_features=5120, out_features=5120, bias=False)
          (o_proj): Linear(in_features=5120, out_features=5120, bias=False)
          (rotary_emb): LlamaRotaryEmbedding()
        )
        (mlp): LlamaMLP(
          (gate_proj): Linear(in_features=5120, out_features=13824, bias=False)
          (up_proj): Linear(in_features=5120, out_features=13824, bias=False)
          (down_proj): Linear(in_features=13824, out_features=5120, bias=False)
          (act_fn): SiLUActivation()
        )
        (input_layernorm): LlamaRMSNorm()
        (post_attention_layernorm): LlamaRMSNorm()
      )
      (22): LlamaDecoderLayer(
        (self_attn): LlamaAttention(
          (q_proj): Linear(in_features=5120, out_features=5120, bias=False)
          (k_proj): Linear(in_features=5120, out_features=5120, bias=False)
          (v_proj): Linear(in_features=5120, out_features=5120, bias=False)
          (o_proj): Linear(in_features=5120, out_features=5120, bias=False)
          (rotary_emb): LlamaRotaryEmbedding()
        )
        (mlp): LlamaMLP(
          (gate_proj): Linear(in_features=5120, out_features=13824, bias=False)
          (up_proj): Linear(in_features=5120, out_features=13824, bias=False)
          (down_proj): Linear(in_features=13824, out_features=5120, bias=False)
          (act_fn): SiLUActivation()
        )
        (input_layernorm): LlamaRMSNorm()
        (post_attention_layernorm): LlamaRMSNorm()
      )
      (23): LlamaDecoderLayer(
        (self_attn): LlamaAttention(
          (q_proj): Linear(in_features=5120, out_features=5120, bias=False)
          (k_proj): Linear(in_features=5120, out_features=5120, bias=False)
          (v_proj): Linear(in_features=5120, out_features=5120, bias=False)
          (o_proj): Linear(in_features=5120, out_features=5120, bias=False)
          (rotary_emb): LlamaRotaryEmbedding()
        )
        (mlp): LlamaMLP(
          (gate_proj): Linear(in_features=5120, out_features=13824, bias=False)
          (up_proj): Linear(in_features=5120, out_features=13824, bias=False)
          (down_proj): Linear(in_features=13824, out_features=5120, bias=False)
          (act_fn): SiLUActivation()
        )
        (input_layernorm): LlamaRMSNorm()
        (post_attention_layernorm): LlamaRMSNorm()
      )
      (24): LlamaDecoderLayer(
        (self_attn): LlamaAttention(
          (q_proj): Linear(in_features=5120, out_features=5120, bias=False)
          (k_proj): Linear(in_features=5120, out_features=5120, bias=False)
          (v_proj): Linear(in_features=5120, out_features=5120, bias=False)
          (o_proj): Linear(in_features=5120, out_features=5120, bias=False)
          (rotary_emb): LlamaRotaryEmbedding()
        )
        (mlp): LlamaMLP(
          (gate_proj): Linear(in_features=5120, out_features=13824, bias=False)
          (up_proj): Linear(in_features=5120, out_features=13824, bias=False)
          (down_proj): Linear(in_features=13824, out_features=5120, bias=False)
          (act_fn): SiLUActivation()
        )
        (input_layernorm): LlamaRMSNorm()
        (post_attention_layernorm): LlamaRMSNorm()
      )
      (25): LlamaDecoderLayer(
        (self_attn): LlamaAttention(
          (q_proj): Linear(in_features=5120, out_features=5120, bias=False)
          (k_proj): Linear(in_features=5120, out_features=5120, bias=False)
          (v_proj): Linear(in_features=5120, out_features=5120, bias=False)
          (o_proj): Linear(in_features=5120, out_features=5120, bias=False)
          (rotary_emb): LlamaRotaryEmbedding()
        )
        (mlp): LlamaMLP(
          (gate_proj): Linear(in_features=5120, out_features=13824, bias=False)
          (up_proj): Linear(in_features=5120, out_features=13824, bias=False)
          (down_proj): Linear(in_features=13824, out_features=5120, bias=False)
          (act_fn): SiLUActivation()
        )
        (input_layernorm): LlamaRMSNorm()
        (post_attention_layernorm): LlamaRMSNorm()
      )
      (26): LlamaDecoderLayer(
        (self_attn): LlamaAttention(
          (q_proj): Linear(in_features=5120, out_features=5120, bias=False)
          (k_proj): Linear(in_features=5120, out_features=5120, bias=False)
          (v_proj): Linear(in_features=5120, out_features=5120, bias=False)
          (o_proj): Linear(in_features=5120, out_features=5120, bias=False)
          (rotary_emb): LlamaRotaryEmbedding()
        )
        (mlp): LlamaMLP(
          (gate_proj): Linear(in_features=5120, out_features=13824, bias=False)
          (up_proj): Linear(in_features=5120, out_features=13824, bias=False)
          (down_proj): Linear(in_features=13824, out_features=5120, bias=False)
          (act_fn): SiLUActivation()
        )
        (input_layernorm): LlamaRMSNorm()
        (post_attention_layernorm): LlamaRMSNorm()
      )
      (27): LlamaDecoderLayer(
        (self_attn): LlamaAttention(
          (q_proj): Linear(in_features=5120, out_features=5120, bias=False)
          (k_proj): Linear(in_features=5120, out_features=5120, bias=False)
          (v_proj): Linear(in_features=5120, out_features=5120, bias=False)
          (o_proj): Linear(in_features=5120, out_features=5120, bias=False)
          (rotary_emb): LlamaRotaryEmbedding()
        )
        (mlp): LlamaMLP(
          (gate_proj): Linear(in_features=5120, out_features=13824, bias=False)
          (up_proj): Linear(in_features=5120, out_features=13824, bias=False)
          (down_proj): Linear(in_features=13824, out_features=5120, bias=False)
          (act_fn): SiLUActivation()
        )
        (input_layernorm): LlamaRMSNorm()
        (post_attention_layernorm): LlamaRMSNorm()
      )
      (28): LlamaDecoderLayer(
        (self_attn): LlamaAttention(
          (q_proj): Linear(in_features=5120, out_features=5120, bias=False)
          (k_proj): Linear(in_features=5120, out_features=5120, bias=False)
          (v_proj): Linear(in_features=5120, out_features=5120, bias=False)
          (o_proj): Linear(in_features=5120, out_features=5120, bias=False)
          (rotary_emb): LlamaRotaryEmbedding()
        )
        (mlp): LlamaMLP(
          (gate_proj): Linear(in_features=5120, out_features=13824, bias=False)
          (up_proj): Linear(in_features=5120, out_features=13824, bias=False)
          (down_proj): Linear(in_features=13824, out_features=5120, bias=False)
          (act_fn): SiLUActivation()
        )
        (input_layernorm): LlamaRMSNorm()
        (post_attention_layernorm): LlamaRMSNorm()
      )
      (29): LlamaDecoderLayer(
        (self_attn): LlamaAttention(
          (q_proj): Linear(in_features=5120, out_features=5120, bias=False)
          (k_proj): Linear(in_features=5120, out_features=5120, bias=False)
          (v_proj): Linear(in_features=5120, out_features=5120, bias=False)
          (o_proj): Linear(in_features=5120, out_features=5120, bias=False)
          (rotary_emb): LlamaRotaryEmbedding()
        )
        (mlp): LlamaMLP(
          (gate_proj): Linear(in_features=5120, out_features=13824, bias=False)
          (up_proj): Linear(in_features=5120, out_features=13824, bias=False)
          (down_proj): Linear(in_features=13824, out_features=5120, bias=False)
          (act_fn): SiLUActivation()
        )
        (input_layernorm): LlamaRMSNorm()
        (post_attention_layernorm): LlamaRMSNorm()
      )
      (30): LlamaDecoderLayer(
        (self_attn): LlamaAttention(
          (q_proj): Linear(in_features=5120, out_features=5120, bias=False)
          (k_proj): Linear(in_features=5120, out_features=5120, bias=False)
          (v_proj): Linear(in_features=5120, out_features=5120, bias=False)
          (o_proj): Linear(in_features=5120, out_features=5120, bias=False)
          (rotary_emb): LlamaRotaryEmbedding()
        )
        (mlp): LlamaMLP(
          (gate_proj): Linear(in_features=5120, out_features=13824, bias=False)
          (up_proj): Linear(in_features=5120, out_features=13824, bias=False)
          (down_proj): Linear(in_features=13824, out_features=5120, bias=False)
          (act_fn): SiLUActivation()
        )
        (input_layernorm): LlamaRMSNorm()
        (post_attention_layernorm): LlamaRMSNorm()
      )
      (31): LlamaDecoderLayer(
        (self_attn): LlamaAttention(
          (q_proj): Linear(in_features=5120, out_features=5120, bias=False)
          (k_proj): Linear(in_features=5120, out_features=5120, bias=False)
          (v_proj): Linear(in_features=5120, out_features=5120, bias=False)
          (o_proj): Linear(in_features=5120, out_features=5120, bias=False)
          (rotary_emb): LlamaRotaryEmbedding()
        )
        (mlp): LlamaMLP(
          (gate_proj): Linear(in_features=5120, out_features=13824, bias=False)
          (up_proj): Linear(in_features=5120, out_features=13824, bias=False)
          (down_proj): Linear(in_features=13824, out_features=5120, bias=False)
          (act_fn): SiLUActivation()
        )
        (input_layernorm): LlamaRMSNorm()
        (post_attention_layernorm): LlamaRMSNorm()
      )
      (32): LlamaDecoderLayer(
        (self_attn): LlamaAttention(
          (q_proj): Linear(in_features=5120, out_features=5120, bias=False)
          (k_proj): Linear(in_features=5120, out_features=5120, bias=False)
          (v_proj): Linear(in_features=5120, out_features=5120, bias=False)
          (o_proj): Linear(in_features=5120, out_features=5120, bias=False)
          (rotary_emb): LlamaRotaryEmbedding()
        )
        (mlp): LlamaMLP(
          (gate_proj): Linear(in_features=5120, out_features=13824, bias=False)
          (up_proj): Linear(in_features=5120, out_features=13824, bias=False)
          (down_proj): Linear(in_features=13824, out_features=5120, bias=False)
          (act_fn): SiLUActivation()
        )
        (input_layernorm): LlamaRMSNorm()
        (post_attention_layernorm): LlamaRMSNorm()
      )
      (33): LlamaDecoderLayer(
        (self_attn): LlamaAttention(
          (q_proj): Linear(in_features=5120, out_features=5120, bias=False)
          (k_proj): Linear(in_features=5120, out_features=5120, bias=False)
          (v_proj): Linear(in_features=5120, out_features=5120, bias=False)
          (o_proj): Linear(in_features=5120, out_features=5120, bias=False)
          (rotary_emb): LlamaRotaryEmbedding()
        )
        (mlp): LlamaMLP(
          (gate_proj): Linear(in_features=5120, out_features=13824, bias=False)
          (up_proj): Linear(in_features=5120, out_features=13824, bias=False)
          (down_proj): Linear(in_features=13824, out_features=5120, bias=False)
          (act_fn): SiLUActivation()
        )
        (input_layernorm): LlamaRMSNorm()
        (post_attention_layernorm): LlamaRMSNorm()
      )
      (34): LlamaDecoderLayer(
        (self_attn): LlamaAttention(
          (q_proj): Linear(in_features=5120, out_features=5120, bias=False)
          (k_proj): Linear(in_features=5120, out_features=5120, bias=False)
          (v_proj): Linear(in_features=5120, out_features=5120, bias=False)
          (o_proj): Linear(in_features=5120, out_features=5120, bias=False)
          (rotary_emb): LlamaRotaryEmbedding()
        )
        (mlp): LlamaMLP(
          (gate_proj): Linear(in_features=5120, out_features=13824, bias=False)
          (up_proj): Linear(in_features=5120, out_features=13824, bias=False)
          (down_proj): Linear(in_features=13824, out_features=5120, bias=False)
          (act_fn): SiLUActivation()
        )
        (input_layernorm): LlamaRMSNorm()
        (post_attention_layernorm): LlamaRMSNorm()
      )
      (35): LlamaDecoderLayer(
        (self_attn): LlamaAttention(
          (q_proj): Linear(in_features=5120, out_features=5120, bias=False)
          (k_proj): Linear(in_features=5120, out_features=5120, bias=False)
          (v_proj): Linear(in_features=5120, out_features=5120, bias=False)
          (o_proj): Linear(in_features=5120, out_features=5120, bias=False)
          (rotary_emb): LlamaRotaryEmbedding()
        )
        (mlp): LlamaMLP(
          (gate_proj): Linear(in_features=5120, out_features=13824, bias=False)
          (up_proj): Linear(in_features=5120, out_features=13824, bias=False)
          (down_proj): Linear(in_features=13824, out_features=5120, bias=False)
          (act_fn): SiLUActivation()
        )
        (input_layernorm): LlamaRMSNorm()
        (post_attention_layernorm): LlamaRMSNorm()
      )
      (36): LlamaDecoderLayer(
        (self_attn): LlamaAttention(
          (q_proj): Linear(in_features=5120, out_features=5120, bias=False)
          (k_proj): Linear(in_features=5120, out_features=5120, bias=False)
          (v_proj): Linear(in_features=5120, out_features=5120, bias=False)
          (o_proj): Linear(in_features=5120, out_features=5120, bias=False)
          (rotary_emb): LlamaRotaryEmbedding()
        )
        (mlp): LlamaMLP(
          (gate_proj): Linear(in_features=5120, out_features=13824, bias=False)
          (up_proj): Linear(in_features=5120, out_features=13824, bias=False)
          (down_proj): Linear(in_features=13824, out_features=5120, bias=False)
          (act_fn): SiLUActivation()
        )
        (input_layernorm): LlamaRMSNorm()
        (post_attention_layernorm): LlamaRMSNorm()
      )
      (37): LlamaDecoderLayer(
        (self_attn): LlamaAttention(
          (q_proj): Linear(in_features=5120, out_features=5120, bias=False)
          (k_proj): Linear(in_features=5120, out_features=5120, bias=False)
          (v_proj): Linear(in_features=5120, out_features=5120, bias=False)
          (o_proj): Linear(in_features=5120, out_features=5120, bias=False)
          (rotary_emb): LlamaRotaryEmbedding()
        )
        (mlp): LlamaMLP(
          (gate_proj): Linear(in_features=5120, out_features=13824, bias=False)
          (up_proj): Linear(in_features=5120, out_features=13824, bias=False)
          (down_proj): Linear(in_features=13824, out_features=5120, bias=False)
          (act_fn): SiLUActivation()
        )
        (input_layernorm): LlamaRMSNorm()
        (post_attention_layernorm): LlamaRMSNorm()
      )
      (38): LlamaDecoderLayer(
        (self_attn): LlamaAttention(
          (q_proj): Linear(in_features=5120, out_features=5120, bias=False)
          (k_proj): Linear(in_features=5120, out_features=5120, bias=False)
          (v_proj): Linear(in_features=5120, out_features=5120, bias=False)
          (o_proj): Linear(in_features=5120, out_features=5120, bias=False)
          (rotary_emb): LlamaRotaryEmbedding()
        )
        (mlp): LlamaMLP(
          (gate_proj): Linear(in_features=5120, out_features=13824, bias=False)
          (up_proj): Linear(in_features=5120, out_features=13824, bias=False)
          (down_proj): Linear(in_features=13824, out_features=5120, bias=False)
          (act_fn): SiLUActivation()
        )
        (input_layernorm): LlamaRMSNorm()
        (post_attention_layernorm): LlamaRMSNorm()
      )
      (39): LlamaDecoderLayer(
        (self_attn): LlamaAttention(
          (q_proj): Linear(in_features=5120, out_features=5120, bias=False)
          (k_proj): Linear(in_features=5120, out_features=5120, bias=False)
          (v_proj): Linear(in_features=5120, out_features=5120, bias=False)
          (o_proj): Linear(in_features=5120, out_features=5120, bias=False)
          (rotary_emb): LlamaRotaryEmbedding()
        )
        (mlp): LlamaMLP(
          (gate_proj): Linear(in_features=5120, out_features=13824, bias=False)
          (up_proj): Linear(in_features=5120, out_features=13824, bias=False)
          (down_proj): Linear(in_features=13824, out_features=5120, bias=False)
          (act_fn): SiLUActivation()
        )
        (input_layernorm): LlamaRMSNorm()
        (post_attention_layernorm): LlamaRMSNorm()
      )
    )
    (norm): LlamaRMSNorm()
  )
  (lm_head): Linear(in_features=5120, out_features=32016, bias=False)
)

可以进行LoRA微调的modules:
[]