模型路径: /root/space/models/Skywork/Skywork-13B-base/main
所有modules:
SkyworkForCausalLM(
  (model): SkyworkModel(
    (embed_tokens): Embedding(65519, 4608, padding_idx=0)
    (layers): ModuleList(
      (0): SkyworkDecoderLayer(
        (self_attn): SkyworkAttention(
          (q_proj): Linear(in_features=4608, out_features=4608, bias=False)
          (k_proj): Linear(in_features=4608, out_features=4608, bias=False)
          (v_proj): Linear(in_features=4608, out_features=4608, bias=False)
          (o_proj): Linear(in_features=4608, out_features=4608, bias=False)
          (rotary_emb): SkyworkRotaryEmbedding()
        )
        (mlp): SkyworkMLP(
          (gate_proj): Linear(in_features=4608, out_features=12288, bias=False)
          (up_proj): Linear(in_features=4608, out_features=12288, bias=False)
          (down_proj): Linear(in_features=12288, out_features=4608, bias=False)
          (act_fn): SiLUActivation()
        )
        (input_layernorm): SkyworkRMSNorm()
        (post_attention_layernorm): SkyworkRMSNorm()
      )
      (1): SkyworkDecoderLayer(
        (self_attn): SkyworkAttention(
          (q_proj): Linear(in_features=4608, out_features=4608, bias=False)
          (k_proj): Linear(in_features=4608, out_features=4608, bias=False)
          (v_proj): Linear(in_features=4608, out_features=4608, bias=False)
          (o_proj): Linear(in_features=4608, out_features=4608, bias=False)
          (rotary_emb): SkyworkRotaryEmbedding()
        )
        (mlp): SkyworkMLP(
          (gate_proj): Linear(in_features=4608, out_features=12288, bias=False)
          (up_proj): Linear(in_features=4608, out_features=12288, bias=False)
          (down_proj): Linear(in_features=12288, out_features=4608, bias=False)
          (act_fn): SiLUActivation()
        )
        (input_layernorm): SkyworkRMSNorm()
        (post_attention_layernorm): SkyworkRMSNorm()
      )
      (2): SkyworkDecoderLayer(
        (self_attn): SkyworkAttention(
          (q_proj): Linear(in_features=4608, out_features=4608, bias=False)
          (k_proj): Linear(in_features=4608, out_features=4608, bias=False)
          (v_proj): Linear(in_features=4608, out_features=4608, bias=False)
          (o_proj): Linear(in_features=4608, out_features=4608, bias=False)
          (rotary_emb): SkyworkRotaryEmbedding()
        )
        (mlp): SkyworkMLP(
          (gate_proj): Linear(in_features=4608, out_features=12288, bias=False)
          (up_proj): Linear(in_features=4608, out_features=12288, bias=False)
          (down_proj): Linear(in_features=12288, out_features=4608, bias=False)
          (act_fn): SiLUActivation()
        )
        (input_layernorm): SkyworkRMSNorm()
        (post_attention_layernorm): SkyworkRMSNorm()
      )
      (3): SkyworkDecoderLayer(
        (self_attn): SkyworkAttention(
          (q_proj): Linear(in_features=4608, out_features=4608, bias=False)
          (k_proj): Linear(in_features=4608, out_features=4608, bias=False)
          (v_proj): Linear(in_features=4608, out_features=4608, bias=False)
          (o_proj): Linear(in_features=4608, out_features=4608, bias=False)
          (rotary_emb): SkyworkRotaryEmbedding()
        )
        (mlp): SkyworkMLP(
          (gate_proj): Linear(in_features=4608, out_features=12288, bias=False)
          (up_proj): Linear(in_features=4608, out_features=12288, bias=False)
          (down_proj): Linear(in_features=12288, out_features=4608, bias=False)
          (act_fn): SiLUActivation()
        )
        (input_layernorm): SkyworkRMSNorm()
        (post_attention_layernorm): SkyworkRMSNorm()
      )
      (4): SkyworkDecoderLayer(
        (self_attn): SkyworkAttention(
          (q_proj): Linear(in_features=4608, out_features=4608, bias=False)
          (k_proj): Linear(in_features=4608, out_features=4608, bias=False)
          (v_proj): Linear(in_features=4608, out_features=4608, bias=False)
          (o_proj): Linear(in_features=4608, out_features=4608, bias=False)
          (rotary_emb): SkyworkRotaryEmbedding()
        )
        (mlp): SkyworkMLP(
          (gate_proj): Linear(in_features=4608, out_features=12288, bias=False)
          (up_proj): Linear(in_features=4608, out_features=12288, bias=False)
          (down_proj): Linear(in_features=12288, out_features=4608, bias=False)
          (act_fn): SiLUActivation()
        )
        (input_layernorm): SkyworkRMSNorm()
        (post_attention_layernorm): SkyworkRMSNorm()
      )
      (5): SkyworkDecoderLayer(
        (self_attn): SkyworkAttention(
          (q_proj): Linear(in_features=4608, out_features=4608, bias=False)
          (k_proj): Linear(in_features=4608, out_features=4608, bias=False)
          (v_proj): Linear(in_features=4608, out_features=4608, bias=False)
          (o_proj): Linear(in_features=4608, out_features=4608, bias=False)
          (rotary_emb): SkyworkRotaryEmbedding()
        )
        (mlp): SkyworkMLP(
          (gate_proj): Linear(in_features=4608, out_features=12288, bias=False)
          (up_proj): Linear(in_features=4608, out_features=12288, bias=False)
          (down_proj): Linear(in_features=12288, out_features=4608, bias=False)
          (act_fn): SiLUActivation()
        )
        (input_layernorm): SkyworkRMSNorm()
        (post_attention_layernorm): SkyworkRMSNorm()
      )
      (6): SkyworkDecoderLayer(
        (self_attn): SkyworkAttention(
          (q_proj): Linear(in_features=4608, out_features=4608, bias=False)
          (k_proj): Linear(in_features=4608, out_features=4608, bias=False)
          (v_proj): Linear(in_features=4608, out_features=4608, bias=False)
          (o_proj): Linear(in_features=4608, out_features=4608, bias=False)
          (rotary_emb): SkyworkRotaryEmbedding()
        )
        (mlp): SkyworkMLP(
          (gate_proj): Linear(in_features=4608, out_features=12288, bias=False)
          (up_proj): Linear(in_features=4608, out_features=12288, bias=False)
          (down_proj): Linear(in_features=12288, out_features=4608, bias=False)
          (act_fn): SiLUActivation()
        )
        (input_layernorm): SkyworkRMSNorm()
        (post_attention_layernorm): SkyworkRMSNorm()
      )
      (7): SkyworkDecoderLayer(
        (self_attn): SkyworkAttention(
          (q_proj): Linear(in_features=4608, out_features=4608, bias=False)
          (k_proj): Linear(in_features=4608, out_features=4608, bias=False)
          (v_proj): Linear(in_features=4608, out_features=4608, bias=False)
          (o_proj): Linear(in_features=4608, out_features=4608, bias=False)
          (rotary_emb): SkyworkRotaryEmbedding()
        )
        (mlp): SkyworkMLP(
          (gate_proj): Linear(in_features=4608, out_features=12288, bias=False)
          (up_proj): Linear(in_features=4608, out_features=12288, bias=False)
          (down_proj): Linear(in_features=12288, out_features=4608, bias=False)
          (act_fn): SiLUActivation()
        )
        (input_layernorm): SkyworkRMSNorm()
        (post_attention_layernorm): SkyworkRMSNorm()
      )
      (8): SkyworkDecoderLayer(
        (self_attn): SkyworkAttention(
          (q_proj): Linear(in_features=4608, out_features=4608, bias=False)
          (k_proj): Linear(in_features=4608, out_features=4608, bias=False)
          (v_proj): Linear(in_features=4608, out_features=4608, bias=False)
          (o_proj): Linear(in_features=4608, out_features=4608, bias=False)
          (rotary_emb): SkyworkRotaryEmbedding()
        )
        (mlp): SkyworkMLP(
          (gate_proj): Linear(in_features=4608, out_features=12288, bias=False)
          (up_proj): Linear(in_features=4608, out_features=12288, bias=False)
          (down_proj): Linear(in_features=12288, out_features=4608, bias=False)
          (act_fn): SiLUActivation()
        )
        (input_layernorm): SkyworkRMSNorm()
        (post_attention_layernorm): SkyworkRMSNorm()
      )
      (9): SkyworkDecoderLayer(
        (self_attn): SkyworkAttention(
          (q_proj): Linear(in_features=4608, out_features=4608, bias=False)
          (k_proj): Linear(in_features=4608, out_features=4608, bias=False)
          (v_proj): Linear(in_features=4608, out_features=4608, bias=False)
          (o_proj): Linear(in_features=4608, out_features=4608, bias=False)
          (rotary_emb): SkyworkRotaryEmbedding()
        )
        (mlp): SkyworkMLP(
          (gate_proj): Linear(in_features=4608, out_features=12288, bias=False)
          (up_proj): Linear(in_features=4608, out_features=12288, bias=False)
          (down_proj): Linear(in_features=12288, out_features=4608, bias=False)
          (act_fn): SiLUActivation()
        )
        (input_layernorm): SkyworkRMSNorm()
        (post_attention_layernorm): SkyworkRMSNorm()
      )
      (10): SkyworkDecoderLayer(
        (self_attn): SkyworkAttention(
          (q_proj): Linear(in_features=4608, out_features=4608, bias=False)
          (k_proj): Linear(in_features=4608, out_features=4608, bias=False)
          (v_proj): Linear(in_features=4608, out_features=4608, bias=False)
          (o_proj): Linear(in_features=4608, out_features=4608, bias=False)
          (rotary_emb): SkyworkRotaryEmbedding()
        )
        (mlp): SkyworkMLP(
          (gate_proj): Linear(in_features=4608, out_features=12288, bias=False)
          (up_proj): Linear(in_features=4608, out_features=12288, bias=False)
          (down_proj): Linear(in_features=12288, out_features=4608, bias=False)
          (act_fn): SiLUActivation()
        )
        (input_layernorm): SkyworkRMSNorm()
        (post_attention_layernorm): SkyworkRMSNorm()
      )
      (11): SkyworkDecoderLayer(
        (self_attn): SkyworkAttention(
          (q_proj): Linear(in_features=4608, out_features=4608, bias=False)
          (k_proj): Linear(in_features=4608, out_features=4608, bias=False)
          (v_proj): Linear(in_features=4608, out_features=4608, bias=False)
          (o_proj): Linear(in_features=4608, out_features=4608, bias=False)
          (rotary_emb): SkyworkRotaryEmbedding()
        )
        (mlp): SkyworkMLP(
          (gate_proj): Linear(in_features=4608, out_features=12288, bias=False)
          (up_proj): Linear(in_features=4608, out_features=12288, bias=False)
          (down_proj): Linear(in_features=12288, out_features=4608, bias=False)
          (act_fn): SiLUActivation()
        )
        (input_layernorm): SkyworkRMSNorm()
        (post_attention_layernorm): SkyworkRMSNorm()
      )
      (12): SkyworkDecoderLayer(
        (self_attn): SkyworkAttention(
          (q_proj): Linear(in_features=4608, out_features=4608, bias=False)
          (k_proj): Linear(in_features=4608, out_features=4608, bias=False)
          (v_proj): Linear(in_features=4608, out_features=4608, bias=False)
          (o_proj): Linear(in_features=4608, out_features=4608, bias=False)
          (rotary_emb): SkyworkRotaryEmbedding()
        )
        (mlp): SkyworkMLP(
          (gate_proj): Linear(in_features=4608, out_features=12288, bias=False)
          (up_proj): Linear(in_features=4608, out_features=12288, bias=False)
          (down_proj): Linear(in_features=12288, out_features=4608, bias=False)
          (act_fn): SiLUActivation()
        )
        (input_layernorm): SkyworkRMSNorm()
        (post_attention_layernorm): SkyworkRMSNorm()
      )
      (13): SkyworkDecoderLayer(
        (self_attn): SkyworkAttention(
          (q_proj): Linear(in_features=4608, out_features=4608, bias=False)
          (k_proj): Linear(in_features=4608, out_features=4608, bias=False)
          (v_proj): Linear(in_features=4608, out_features=4608, bias=False)
          (o_proj): Linear(in_features=4608, out_features=4608, bias=False)
          (rotary_emb): SkyworkRotaryEmbedding()
        )
        (mlp): SkyworkMLP(
          (gate_proj): Linear(in_features=4608, out_features=12288, bias=False)
          (up_proj): Linear(in_features=4608, out_features=12288, bias=False)
          (down_proj): Linear(in_features=12288, out_features=4608, bias=False)
          (act_fn): SiLUActivation()
        )
        (input_layernorm): SkyworkRMSNorm()
        (post_attention_layernorm): SkyworkRMSNorm()
      )
      (14): SkyworkDecoderLayer(
        (self_attn): SkyworkAttention(
          (q_proj): Linear(in_features=4608, out_features=4608, bias=False)
          (k_proj): Linear(in_features=4608, out_features=4608, bias=False)
          (v_proj): Linear(in_features=4608, out_features=4608, bias=False)
          (o_proj): Linear(in_features=4608, out_features=4608, bias=False)
          (rotary_emb): SkyworkRotaryEmbedding()
        )
        (mlp): SkyworkMLP(
          (gate_proj): Linear(in_features=4608, out_features=12288, bias=False)
          (up_proj): Linear(in_features=4608, out_features=12288, bias=False)
          (down_proj): Linear(in_features=12288, out_features=4608, bias=False)
          (act_fn): SiLUActivation()
        )
        (input_layernorm): SkyworkRMSNorm()
        (post_attention_layernorm): SkyworkRMSNorm()
      )
      (15): SkyworkDecoderLayer(
        (self_attn): SkyworkAttention(
          (q_proj): Linear(in_features=4608, out_features=4608, bias=False)
          (k_proj): Linear(in_features=4608, out_features=4608, bias=False)
          (v_proj): Linear(in_features=4608, out_features=4608, bias=False)
          (o_proj): Linear(in_features=4608, out_features=4608, bias=False)
          (rotary_emb): SkyworkRotaryEmbedding()
        )
        (mlp): SkyworkMLP(
          (gate_proj): Linear(in_features=4608, out_features=12288, bias=False)
          (up_proj): Linear(in_features=4608, out_features=12288, bias=False)
          (down_proj): Linear(in_features=12288, out_features=4608, bias=False)
          (act_fn): SiLUActivation()
        )
        (input_layernorm): SkyworkRMSNorm()
        (post_attention_layernorm): SkyworkRMSNorm()
      )
      (16): SkyworkDecoderLayer(
        (self_attn): SkyworkAttention(
          (q_proj): Linear(in_features=4608, out_features=4608, bias=False)
          (k_proj): Linear(in_features=4608, out_features=4608, bias=False)
          (v_proj): Linear(in_features=4608, out_features=4608, bias=False)
          (o_proj): Linear(in_features=4608, out_features=4608, bias=False)
          (rotary_emb): SkyworkRotaryEmbedding()
        )
        (mlp): SkyworkMLP(
          (gate_proj): Linear(in_features=4608, out_features=12288, bias=False)
          (up_proj): Linear(in_features=4608, out_features=12288, bias=False)
          (down_proj): Linear(in_features=12288, out_features=4608, bias=False)
          (act_fn): SiLUActivation()
        )
        (input_layernorm): SkyworkRMSNorm()
        (post_attention_layernorm): SkyworkRMSNorm()
      )
      (17): SkyworkDecoderLayer(
        (self_attn): SkyworkAttention(
          (q_proj): Linear(in_features=4608, out_features=4608, bias=False)
          (k_proj): Linear(in_features=4608, out_features=4608, bias=False)
          (v_proj): Linear(in_features=4608, out_features=4608, bias=False)
          (o_proj): Linear(in_features=4608, out_features=4608, bias=False)
          (rotary_emb): SkyworkRotaryEmbedding()
        )
        (mlp): SkyworkMLP(
          (gate_proj): Linear(in_features=4608, out_features=12288, bias=False)
          (up_proj): Linear(in_features=4608, out_features=12288, bias=False)
          (down_proj): Linear(in_features=12288, out_features=4608, bias=False)
          (act_fn): SiLUActivation()
        )
        (input_layernorm): SkyworkRMSNorm()
        (post_attention_layernorm): SkyworkRMSNorm()
      )
      (18): SkyworkDecoderLayer(
        (self_attn): SkyworkAttention(
          (q_proj): Linear(in_features=4608, out_features=4608, bias=False)
          (k_proj): Linear(in_features=4608, out_features=4608, bias=False)
          (v_proj): Linear(in_features=4608, out_features=4608, bias=False)
          (o_proj): Linear(in_features=4608, out_features=4608, bias=False)
          (rotary_emb): SkyworkRotaryEmbedding()
        )
        (mlp): SkyworkMLP(
          (gate_proj): Linear(in_features=4608, out_features=12288, bias=False)
          (up_proj): Linear(in_features=4608, out_features=12288, bias=False)
          (down_proj): Linear(in_features=12288, out_features=4608, bias=False)
          (act_fn): SiLUActivation()
        )
        (input_layernorm): SkyworkRMSNorm()
        (post_attention_layernorm): SkyworkRMSNorm()
      )
      (19): SkyworkDecoderLayer(
        (self_attn): SkyworkAttention(
          (q_proj): Linear(in_features=4608, out_features=4608, bias=False)
          (k_proj): Linear(in_features=4608, out_features=4608, bias=False)
          (v_proj): Linear(in_features=4608, out_features=4608, bias=False)
          (o_proj): Linear(in_features=4608, out_features=4608, bias=False)
          (rotary_emb): SkyworkRotaryEmbedding()
        )
        (mlp): SkyworkMLP(
          (gate_proj): Linear(in_features=4608, out_features=12288, bias=False)
          (up_proj): Linear(in_features=4608, out_features=12288, bias=False)
          (down_proj): Linear(in_features=12288, out_features=4608, bias=False)
          (act_fn): SiLUActivation()
        )
        (input_layernorm): SkyworkRMSNorm()
        (post_attention_layernorm): SkyworkRMSNorm()
      )
      (20): SkyworkDecoderLayer(
        (self_attn): SkyworkAttention(
          (q_proj): Linear(in_features=4608, out_features=4608, bias=False)
          (k_proj): Linear(in_features=4608, out_features=4608, bias=False)
          (v_proj): Linear(in_features=4608, out_features=4608, bias=False)
          (o_proj): Linear(in_features=4608, out_features=4608, bias=False)
          (rotary_emb): SkyworkRotaryEmbedding()
        )
        (mlp): SkyworkMLP(
          (gate_proj): Linear(in_features=4608, out_features=12288, bias=False)
          (up_proj): Linear(in_features=4608, out_features=12288, bias=False)
          (down_proj): Linear(in_features=12288, out_features=4608, bias=False)
          (act_fn): SiLUActivation()
        )
        (input_layernorm): SkyworkRMSNorm()
        (post_attention_layernorm): SkyworkRMSNorm()
      )
      (21): SkyworkDecoderLayer(
        (self_attn): SkyworkAttention(
          (q_proj): Linear(in_features=4608, out_features=4608, bias=False)
          (k_proj): Linear(in_features=4608, out_features=4608, bias=False)
          (v_proj): Linear(in_features=4608, out_features=4608, bias=False)
          (o_proj): Linear(in_features=4608, out_features=4608, bias=False)
          (rotary_emb): SkyworkRotaryEmbedding()
        )
        (mlp): SkyworkMLP(
          (gate_proj): Linear(in_features=4608, out_features=12288, bias=False)
          (up_proj): Linear(in_features=4608, out_features=12288, bias=False)
          (down_proj): Linear(in_features=12288, out_features=4608, bias=False)
          (act_fn): SiLUActivation()
        )
        (input_layernorm): SkyworkRMSNorm()
        (post_attention_layernorm): SkyworkRMSNorm()
      )
      (22): SkyworkDecoderLayer(
        (self_attn): SkyworkAttention(
          (q_proj): Linear(in_features=4608, out_features=4608, bias=False)
          (k_proj): Linear(in_features=4608, out_features=4608, bias=False)
          (v_proj): Linear(in_features=4608, out_features=4608, bias=False)
          (o_proj): Linear(in_features=4608, out_features=4608, bias=False)
          (rotary_emb): SkyworkRotaryEmbedding()
        )
        (mlp): SkyworkMLP(
          (gate_proj): Linear(in_features=4608, out_features=12288, bias=False)
          (up_proj): Linear(in_features=4608, out_features=12288, bias=False)
          (down_proj): Linear(in_features=12288, out_features=4608, bias=False)
          (act_fn): SiLUActivation()
        )
        (input_layernorm): SkyworkRMSNorm()
        (post_attention_layernorm): SkyworkRMSNorm()
      )
      (23): SkyworkDecoderLayer(
        (self_attn): SkyworkAttention(
          (q_proj): Linear(in_features=4608, out_features=4608, bias=False)
          (k_proj): Linear(in_features=4608, out_features=4608, bias=False)
          (v_proj): Linear(in_features=4608, out_features=4608, bias=False)
          (o_proj): Linear(in_features=4608, out_features=4608, bias=False)
          (rotary_emb): SkyworkRotaryEmbedding()
        )
        (mlp): SkyworkMLP(
          (gate_proj): Linear(in_features=4608, out_features=12288, bias=False)
          (up_proj): Linear(in_features=4608, out_features=12288, bias=False)
          (down_proj): Linear(in_features=12288, out_features=4608, bias=False)
          (act_fn): SiLUActivation()
        )
        (input_layernorm): SkyworkRMSNorm()
        (post_attention_layernorm): SkyworkRMSNorm()
      )
      (24): SkyworkDecoderLayer(
        (self_attn): SkyworkAttention(
          (q_proj): Linear(in_features=4608, out_features=4608, bias=False)
          (k_proj): Linear(in_features=4608, out_features=4608, bias=False)
          (v_proj): Linear(in_features=4608, out_features=4608, bias=False)
          (o_proj): Linear(in_features=4608, out_features=4608, bias=False)
          (rotary_emb): SkyworkRotaryEmbedding()
        )
        (mlp): SkyworkMLP(
          (gate_proj): Linear(in_features=4608, out_features=12288, bias=False)
          (up_proj): Linear(in_features=4608, out_features=12288, bias=False)
          (down_proj): Linear(in_features=12288, out_features=4608, bias=False)
          (act_fn): SiLUActivation()
        )
        (input_layernorm): SkyworkRMSNorm()
        (post_attention_layernorm): SkyworkRMSNorm()
      )
      (25): SkyworkDecoderLayer(
        (self_attn): SkyworkAttention(
          (q_proj): Linear(in_features=4608, out_features=4608, bias=False)
          (k_proj): Linear(in_features=4608, out_features=4608, bias=False)
          (v_proj): Linear(in_features=4608, out_features=4608, bias=False)
          (o_proj): Linear(in_features=4608, out_features=4608, bias=False)
          (rotary_emb): SkyworkRotaryEmbedding()
        )
        (mlp): SkyworkMLP(
          (gate_proj): Linear(in_features=4608, out_features=12288, bias=False)
          (up_proj): Linear(in_features=4608, out_features=12288, bias=False)
          (down_proj): Linear(in_features=12288, out_features=4608, bias=False)
          (act_fn): SiLUActivation()
        )
        (input_layernorm): SkyworkRMSNorm()
        (post_attention_layernorm): SkyworkRMSNorm()
      )
      (26): SkyworkDecoderLayer(
        (self_attn): SkyworkAttention(
          (q_proj): Linear(in_features=4608, out_features=4608, bias=False)
          (k_proj): Linear(in_features=4608, out_features=4608, bias=False)
          (v_proj): Linear(in_features=4608, out_features=4608, bias=False)
          (o_proj): Linear(in_features=4608, out_features=4608, bias=False)
          (rotary_emb): SkyworkRotaryEmbedding()
        )
        (mlp): SkyworkMLP(
          (gate_proj): Linear(in_features=4608, out_features=12288, bias=False)
          (up_proj): Linear(in_features=4608, out_features=12288, bias=False)
          (down_proj): Linear(in_features=12288, out_features=4608, bias=False)
          (act_fn): SiLUActivation()
        )
        (input_layernorm): SkyworkRMSNorm()
        (post_attention_layernorm): SkyworkRMSNorm()
      )
      (27): SkyworkDecoderLayer(
        (self_attn): SkyworkAttention(
          (q_proj): Linear(in_features=4608, out_features=4608, bias=False)
          (k_proj): Linear(in_features=4608, out_features=4608, bias=False)
          (v_proj): Linear(in_features=4608, out_features=4608, bias=False)
          (o_proj): Linear(in_features=4608, out_features=4608, bias=False)
          (rotary_emb): SkyworkRotaryEmbedding()
        )
        (mlp): SkyworkMLP(
          (gate_proj): Linear(in_features=4608, out_features=12288, bias=False)
          (up_proj): Linear(in_features=4608, out_features=12288, bias=False)
          (down_proj): Linear(in_features=12288, out_features=4608, bias=False)
          (act_fn): SiLUActivation()
        )
        (input_layernorm): SkyworkRMSNorm()
        (post_attention_layernorm): SkyworkRMSNorm()
      )
      (28): SkyworkDecoderLayer(
        (self_attn): SkyworkAttention(
          (q_proj): Linear(in_features=4608, out_features=4608, bias=False)
          (k_proj): Linear(in_features=4608, out_features=4608, bias=False)
          (v_proj): Linear(in_features=4608, out_features=4608, bias=False)
          (o_proj): Linear(in_features=4608, out_features=4608, bias=False)
          (rotary_emb): SkyworkRotaryEmbedding()
        )
        (mlp): SkyworkMLP(
          (gate_proj): Linear(in_features=4608, out_features=12288, bias=False)
          (up_proj): Linear(in_features=4608, out_features=12288, bias=False)
          (down_proj): Linear(in_features=12288, out_features=4608, bias=False)
          (act_fn): SiLUActivation()
        )
        (input_layernorm): SkyworkRMSNorm()
        (post_attention_layernorm): SkyworkRMSNorm()
      )
      (29): SkyworkDecoderLayer(
        (self_attn): SkyworkAttention(
          (q_proj): Linear(in_features=4608, out_features=4608, bias=False)
          (k_proj): Linear(in_features=4608, out_features=4608, bias=False)
          (v_proj): Linear(in_features=4608, out_features=4608, bias=False)
          (o_proj): Linear(in_features=4608, out_features=4608, bias=False)
          (rotary_emb): SkyworkRotaryEmbedding()
        )
        (mlp): SkyworkMLP(
          (gate_proj): Linear(in_features=4608, out_features=12288, bias=False)
          (up_proj): Linear(in_features=4608, out_features=12288, bias=False)
          (down_proj): Linear(in_features=12288, out_features=4608, bias=False)
          (act_fn): SiLUActivation()
        )
        (input_layernorm): SkyworkRMSNorm()
        (post_attention_layernorm): SkyworkRMSNorm()
      )
      (30): SkyworkDecoderLayer(
        (self_attn): SkyworkAttention(
          (q_proj): Linear(in_features=4608, out_features=4608, bias=False)
          (k_proj): Linear(in_features=4608, out_features=4608, bias=False)
          (v_proj): Linear(in_features=4608, out_features=4608, bias=False)
          (o_proj): Linear(in_features=4608, out_features=4608, bias=False)
          (rotary_emb): SkyworkRotaryEmbedding()
        )
        (mlp): SkyworkMLP(
          (gate_proj): Linear(in_features=4608, out_features=12288, bias=False)
          (up_proj): Linear(in_features=4608, out_features=12288, bias=False)
          (down_proj): Linear(in_features=12288, out_features=4608, bias=False)
          (act_fn): SiLUActivation()
        )
        (input_layernorm): SkyworkRMSNorm()
        (post_attention_layernorm): SkyworkRMSNorm()
      )
      (31): SkyworkDecoderLayer(
        (self_attn): SkyworkAttention(
          (q_proj): Linear(in_features=4608, out_features=4608, bias=False)
          (k_proj): Linear(in_features=4608, out_features=4608, bias=False)
          (v_proj): Linear(in_features=4608, out_features=4608, bias=False)
          (o_proj): Linear(in_features=4608, out_features=4608, bias=False)
          (rotary_emb): SkyworkRotaryEmbedding()
        )
        (mlp): SkyworkMLP(
          (gate_proj): Linear(in_features=4608, out_features=12288, bias=False)
          (up_proj): Linear(in_features=4608, out_features=12288, bias=False)
          (down_proj): Linear(in_features=12288, out_features=4608, bias=False)
          (act_fn): SiLUActivation()
        )
        (input_layernorm): SkyworkRMSNorm()
        (post_attention_layernorm): SkyworkRMSNorm()
      )
      (32): SkyworkDecoderLayer(
        (self_attn): SkyworkAttention(
          (q_proj): Linear(in_features=4608, out_features=4608, bias=False)
          (k_proj): Linear(in_features=4608, out_features=4608, bias=False)
          (v_proj): Linear(in_features=4608, out_features=4608, bias=False)
          (o_proj): Linear(in_features=4608, out_features=4608, bias=False)
          (rotary_emb): SkyworkRotaryEmbedding()
        )
        (mlp): SkyworkMLP(
          (gate_proj): Linear(in_features=4608, out_features=12288, bias=False)
          (up_proj): Linear(in_features=4608, out_features=12288, bias=False)
          (down_proj): Linear(in_features=12288, out_features=4608, bias=False)
          (act_fn): SiLUActivation()
        )
        (input_layernorm): SkyworkRMSNorm()
        (post_attention_layernorm): SkyworkRMSNorm()
      )
      (33): SkyworkDecoderLayer(
        (self_attn): SkyworkAttention(
          (q_proj): Linear(in_features=4608, out_features=4608, bias=False)
          (k_proj): Linear(in_features=4608, out_features=4608, bias=False)
          (v_proj): Linear(in_features=4608, out_features=4608, bias=False)
          (o_proj): Linear(in_features=4608, out_features=4608, bias=False)
          (rotary_emb): SkyworkRotaryEmbedding()
        )
        (mlp): SkyworkMLP(
          (gate_proj): Linear(in_features=4608, out_features=12288, bias=False)
          (up_proj): Linear(in_features=4608, out_features=12288, bias=False)
          (down_proj): Linear(in_features=12288, out_features=4608, bias=False)
          (act_fn): SiLUActivation()
        )
        (input_layernorm): SkyworkRMSNorm()
        (post_attention_layernorm): SkyworkRMSNorm()
      )
      (34): SkyworkDecoderLayer(
        (self_attn): SkyworkAttention(
          (q_proj): Linear(in_features=4608, out_features=4608, bias=False)
          (k_proj): Linear(in_features=4608, out_features=4608, bias=False)
          (v_proj): Linear(in_features=4608, out_features=4608, bias=False)
          (o_proj): Linear(in_features=4608, out_features=4608, bias=False)
          (rotary_emb): SkyworkRotaryEmbedding()
        )
        (mlp): SkyworkMLP(
          (gate_proj): Linear(in_features=4608, out_features=12288, bias=False)
          (up_proj): Linear(in_features=4608, out_features=12288, bias=False)
          (down_proj): Linear(in_features=12288, out_features=4608, bias=False)
          (act_fn): SiLUActivation()
        )
        (input_layernorm): SkyworkRMSNorm()
        (post_attention_layernorm): SkyworkRMSNorm()
      )
      (35): SkyworkDecoderLayer(
        (self_attn): SkyworkAttention(
          (q_proj): Linear(in_features=4608, out_features=4608, bias=False)
          (k_proj): Linear(in_features=4608, out_features=4608, bias=False)
          (v_proj): Linear(in_features=4608, out_features=4608, bias=False)
          (o_proj): Linear(in_features=4608, out_features=4608, bias=False)
          (rotary_emb): SkyworkRotaryEmbedding()
        )
        (mlp): SkyworkMLP(
          (gate_proj): Linear(in_features=4608, out_features=12288, bias=False)
          (up_proj): Linear(in_features=4608, out_features=12288, bias=False)
          (down_proj): Linear(in_features=12288, out_features=4608, bias=False)
          (act_fn): SiLUActivation()
        )
        (input_layernorm): SkyworkRMSNorm()
        (post_attention_layernorm): SkyworkRMSNorm()
      )
      (36): SkyworkDecoderLayer(
        (self_attn): SkyworkAttention(
          (q_proj): Linear(in_features=4608, out_features=4608, bias=False)
          (k_proj): Linear(in_features=4608, out_features=4608, bias=False)
          (v_proj): Linear(in_features=4608, out_features=4608, bias=False)
          (o_proj): Linear(in_features=4608, out_features=4608, bias=False)
          (rotary_emb): SkyworkRotaryEmbedding()
        )
        (mlp): SkyworkMLP(
          (gate_proj): Linear(in_features=4608, out_features=12288, bias=False)
          (up_proj): Linear(in_features=4608, out_features=12288, bias=False)
          (down_proj): Linear(in_features=12288, out_features=4608, bias=False)
          (act_fn): SiLUActivation()
        )
        (input_layernorm): SkyworkRMSNorm()
        (post_attention_layernorm): SkyworkRMSNorm()
      )
      (37): SkyworkDecoderLayer(
        (self_attn): SkyworkAttention(
          (q_proj): Linear(in_features=4608, out_features=4608, bias=False)
          (k_proj): Linear(in_features=4608, out_features=4608, bias=False)
          (v_proj): Linear(in_features=4608, out_features=4608, bias=False)
          (o_proj): Linear(in_features=4608, out_features=4608, bias=False)
          (rotary_emb): SkyworkRotaryEmbedding()
        )
        (mlp): SkyworkMLP(
          (gate_proj): Linear(in_features=4608, out_features=12288, bias=False)
          (up_proj): Linear(in_features=4608, out_features=12288, bias=False)
          (down_proj): Linear(in_features=12288, out_features=4608, bias=False)
          (act_fn): SiLUActivation()
        )
        (input_layernorm): SkyworkRMSNorm()
        (post_attention_layernorm): SkyworkRMSNorm()
      )
      (38): SkyworkDecoderLayer(
        (self_attn): SkyworkAttention(
          (q_proj): Linear(in_features=4608, out_features=4608, bias=False)
          (k_proj): Linear(in_features=4608, out_features=4608, bias=False)
          (v_proj): Linear(in_features=4608, out_features=4608, bias=False)
          (o_proj): Linear(in_features=4608, out_features=4608, bias=False)
          (rotary_emb): SkyworkRotaryEmbedding()
        )
        (mlp): SkyworkMLP(
          (gate_proj): Linear(in_features=4608, out_features=12288, bias=False)
          (up_proj): Linear(in_features=4608, out_features=12288, bias=False)
          (down_proj): Linear(in_features=12288, out_features=4608, bias=False)
          (act_fn): SiLUActivation()
        )
        (input_layernorm): SkyworkRMSNorm()
        (post_attention_layernorm): SkyworkRMSNorm()
      )
      (39): SkyworkDecoderLayer(
        (self_attn): SkyworkAttention(
          (q_proj): Linear(in_features=4608, out_features=4608, bias=False)
          (k_proj): Linear(in_features=4608, out_features=4608, bias=False)
          (v_proj): Linear(in_features=4608, out_features=4608, bias=False)
          (o_proj): Linear(in_features=4608, out_features=4608, bias=False)
          (rotary_emb): SkyworkRotaryEmbedding()
        )
        (mlp): SkyworkMLP(
          (gate_proj): Linear(in_features=4608, out_features=12288, bias=False)
          (up_proj): Linear(in_features=4608, out_features=12288, bias=False)
          (down_proj): Linear(in_features=12288, out_features=4608, bias=False)
          (act_fn): SiLUActivation()
        )
        (input_layernorm): SkyworkRMSNorm()
        (post_attention_layernorm): SkyworkRMSNorm()
      )
      (40): SkyworkDecoderLayer(
        (self_attn): SkyworkAttention(
          (q_proj): Linear(in_features=4608, out_features=4608, bias=False)
          (k_proj): Linear(in_features=4608, out_features=4608, bias=False)
          (v_proj): Linear(in_features=4608, out_features=4608, bias=False)
          (o_proj): Linear(in_features=4608, out_features=4608, bias=False)
          (rotary_emb): SkyworkRotaryEmbedding()
        )
        (mlp): SkyworkMLP(
          (gate_proj): Linear(in_features=4608, out_features=12288, bias=False)
          (up_proj): Linear(in_features=4608, out_features=12288, bias=False)
          (down_proj): Linear(in_features=12288, out_features=4608, bias=False)
          (act_fn): SiLUActivation()
        )
        (input_layernorm): SkyworkRMSNorm()
        (post_attention_layernorm): SkyworkRMSNorm()
      )
      (41): SkyworkDecoderLayer(
        (self_attn): SkyworkAttention(
          (q_proj): Linear(in_features=4608, out_features=4608, bias=False)
          (k_proj): Linear(in_features=4608, out_features=4608, bias=False)
          (v_proj): Linear(in_features=4608, out_features=4608, bias=False)
          (o_proj): Linear(in_features=4608, out_features=4608, bias=False)
          (rotary_emb): SkyworkRotaryEmbedding()
        )
        (mlp): SkyworkMLP(
          (gate_proj): Linear(in_features=4608, out_features=12288, bias=False)
          (up_proj): Linear(in_features=4608, out_features=12288, bias=False)
          (down_proj): Linear(in_features=12288, out_features=4608, bias=False)
          (act_fn): SiLUActivation()
        )
        (input_layernorm): SkyworkRMSNorm()
        (post_attention_layernorm): SkyworkRMSNorm()
      )
      (42): SkyworkDecoderLayer(
        (self_attn): SkyworkAttention(
          (q_proj): Linear(in_features=4608, out_features=4608, bias=False)
          (k_proj): Linear(in_features=4608, out_features=4608, bias=False)
          (v_proj): Linear(in_features=4608, out_features=4608, bias=False)
          (o_proj): Linear(in_features=4608, out_features=4608, bias=False)
          (rotary_emb): SkyworkRotaryEmbedding()
        )
        (mlp): SkyworkMLP(
          (gate_proj): Linear(in_features=4608, out_features=12288, bias=False)
          (up_proj): Linear(in_features=4608, out_features=12288, bias=False)
          (down_proj): Linear(in_features=12288, out_features=4608, bias=False)
          (act_fn): SiLUActivation()
        )
        (input_layernorm): SkyworkRMSNorm()
        (post_attention_layernorm): SkyworkRMSNorm()
      )
      (43): SkyworkDecoderLayer(
        (self_attn): SkyworkAttention(
          (q_proj): Linear(in_features=4608, out_features=4608, bias=False)
          (k_proj): Linear(in_features=4608, out_features=4608, bias=False)
          (v_proj): Linear(in_features=4608, out_features=4608, bias=False)
          (o_proj): Linear(in_features=4608, out_features=4608, bias=False)
          (rotary_emb): SkyworkRotaryEmbedding()
        )
        (mlp): SkyworkMLP(
          (gate_proj): Linear(in_features=4608, out_features=12288, bias=False)
          (up_proj): Linear(in_features=4608, out_features=12288, bias=False)
          (down_proj): Linear(in_features=12288, out_features=4608, bias=False)
          (act_fn): SiLUActivation()
        )
        (input_layernorm): SkyworkRMSNorm()
        (post_attention_layernorm): SkyworkRMSNorm()
      )
      (44): SkyworkDecoderLayer(
        (self_attn): SkyworkAttention(
          (q_proj): Linear(in_features=4608, out_features=4608, bias=False)
          (k_proj): Linear(in_features=4608, out_features=4608, bias=False)
          (v_proj): Linear(in_features=4608, out_features=4608, bias=False)
          (o_proj): Linear(in_features=4608, out_features=4608, bias=False)
          (rotary_emb): SkyworkRotaryEmbedding()
        )
        (mlp): SkyworkMLP(
          (gate_proj): Linear(in_features=4608, out_features=12288, bias=False)
          (up_proj): Linear(in_features=4608, out_features=12288, bias=False)
          (down_proj): Linear(in_features=12288, out_features=4608, bias=False)
          (act_fn): SiLUActivation()
        )
        (input_layernorm): SkyworkRMSNorm()
        (post_attention_layernorm): SkyworkRMSNorm()
      )
      (45): SkyworkDecoderLayer(
        (self_attn): SkyworkAttention(
          (q_proj): Linear(in_features=4608, out_features=4608, bias=False)
          (k_proj): Linear(in_features=4608, out_features=4608, bias=False)
          (v_proj): Linear(in_features=4608, out_features=4608, bias=False)
          (o_proj): Linear(in_features=4608, out_features=4608, bias=False)
          (rotary_emb): SkyworkRotaryEmbedding()
        )
        (mlp): SkyworkMLP(
          (gate_proj): Linear(in_features=4608, out_features=12288, bias=False)
          (up_proj): Linear(in_features=4608, out_features=12288, bias=False)
          (down_proj): Linear(in_features=12288, out_features=4608, bias=False)
          (act_fn): SiLUActivation()
        )
        (input_layernorm): SkyworkRMSNorm()
        (post_attention_layernorm): SkyworkRMSNorm()
      )
      (46): SkyworkDecoderLayer(
        (self_attn): SkyworkAttention(
          (q_proj): Linear(in_features=4608, out_features=4608, bias=False)
          (k_proj): Linear(in_features=4608, out_features=4608, bias=False)
          (v_proj): Linear(in_features=4608, out_features=4608, bias=False)
          (o_proj): Linear(in_features=4608, out_features=4608, bias=False)
          (rotary_emb): SkyworkRotaryEmbedding()
        )
        (mlp): SkyworkMLP(
          (gate_proj): Linear(in_features=4608, out_features=12288, bias=False)
          (up_proj): Linear(in_features=4608, out_features=12288, bias=False)
          (down_proj): Linear(in_features=12288, out_features=4608, bias=False)
          (act_fn): SiLUActivation()
        )
        (input_layernorm): SkyworkRMSNorm()
        (post_attention_layernorm): SkyworkRMSNorm()
      )
      (47): SkyworkDecoderLayer(
        (self_attn): SkyworkAttention(
          (q_proj): Linear(in_features=4608, out_features=4608, bias=False)
          (k_proj): Linear(in_features=4608, out_features=4608, bias=False)
          (v_proj): Linear(in_features=4608, out_features=4608, bias=False)
          (o_proj): Linear(in_features=4608, out_features=4608, bias=False)
          (rotary_emb): SkyworkRotaryEmbedding()
        )
        (mlp): SkyworkMLP(
          (gate_proj): Linear(in_features=4608, out_features=12288, bias=False)
          (up_proj): Linear(in_features=4608, out_features=12288, bias=False)
          (down_proj): Linear(in_features=12288, out_features=4608, bias=False)
          (act_fn): SiLUActivation()
        )
        (input_layernorm): SkyworkRMSNorm()
        (post_attention_layernorm): SkyworkRMSNorm()
      )
      (48): SkyworkDecoderLayer(
        (self_attn): SkyworkAttention(
          (q_proj): Linear(in_features=4608, out_features=4608, bias=False)
          (k_proj): Linear(in_features=4608, out_features=4608, bias=False)
          (v_proj): Linear(in_features=4608, out_features=4608, bias=False)
          (o_proj): Linear(in_features=4608, out_features=4608, bias=False)
          (rotary_emb): SkyworkRotaryEmbedding()
        )
        (mlp): SkyworkMLP(
          (gate_proj): Linear(in_features=4608, out_features=12288, bias=False)
          (up_proj): Linear(in_features=4608, out_features=12288, bias=False)
          (down_proj): Linear(in_features=12288, out_features=4608, bias=False)
          (act_fn): SiLUActivation()
        )
        (input_layernorm): SkyworkRMSNorm()
        (post_attention_layernorm): SkyworkRMSNorm()
      )
      (49): SkyworkDecoderLayer(
        (self_attn): SkyworkAttention(
          (q_proj): Linear(in_features=4608, out_features=4608, bias=False)
          (k_proj): Linear(in_features=4608, out_features=4608, bias=False)
          (v_proj): Linear(in_features=4608, out_features=4608, bias=False)
          (o_proj): Linear(in_features=4608, out_features=4608, bias=False)
          (rotary_emb): SkyworkRotaryEmbedding()
        )
        (mlp): SkyworkMLP(
          (gate_proj): Linear(in_features=4608, out_features=12288, bias=False)
          (up_proj): Linear(in_features=4608, out_features=12288, bias=False)
          (down_proj): Linear(in_features=12288, out_features=4608, bias=False)
          (act_fn): SiLUActivation()
        )
        (input_layernorm): SkyworkRMSNorm()
        (post_attention_layernorm): SkyworkRMSNorm()
      )
      (50): SkyworkDecoderLayer(
        (self_attn): SkyworkAttention(
          (q_proj): Linear(in_features=4608, out_features=4608, bias=False)
          (k_proj): Linear(in_features=4608, out_features=4608, bias=False)
          (v_proj): Linear(in_features=4608, out_features=4608, bias=False)
          (o_proj): Linear(in_features=4608, out_features=4608, bias=False)
          (rotary_emb): SkyworkRotaryEmbedding()
        )
        (mlp): SkyworkMLP(
          (gate_proj): Linear(in_features=4608, out_features=12288, bias=False)
          (up_proj): Linear(in_features=4608, out_features=12288, bias=False)
          (down_proj): Linear(in_features=12288, out_features=4608, bias=False)
          (act_fn): SiLUActivation()
        )
        (input_layernorm): SkyworkRMSNorm()
        (post_attention_layernorm): SkyworkRMSNorm()
      )
      (51): SkyworkDecoderLayer(
        (self_attn): SkyworkAttention(
          (q_proj): Linear(in_features=4608, out_features=4608, bias=False)
          (k_proj): Linear(in_features=4608, out_features=4608, bias=False)
          (v_proj): Linear(in_features=4608, out_features=4608, bias=False)
          (o_proj): Linear(in_features=4608, out_features=4608, bias=False)
          (rotary_emb): SkyworkRotaryEmbedding()
        )
        (mlp): SkyworkMLP(
          (gate_proj): Linear(in_features=4608, out_features=12288, bias=False)
          (up_proj): Linear(in_features=4608, out_features=12288, bias=False)
          (down_proj): Linear(in_features=12288, out_features=4608, bias=False)
          (act_fn): SiLUActivation()
        )
        (input_layernorm): SkyworkRMSNorm()
        (post_attention_layernorm): SkyworkRMSNorm()
      )
    )
    (norm): SkyworkRMSNorm()
  )
  (lm_head): Linear(in_features=4608, out_features=65519, bias=False)
)

可以进行LoRA微调的modules:
[]