…
bin /root/space/conda_envs/test_hub/lib/python3.10/site-packages/bitsandbytes/libbitsandbytes_cuda116_nocublaslt.so
CUDA SETUP: CUDA runtime path found: /root/space/conda_envs/test_hub/lib/libcudart.so
CUDA SETUP: Highest compute capability among GPUs detected: 7.0
CUDA SETUP: Detected CUDA version 116
CUDA SETUP: Loading binary /root/space/conda_envs/test_hub/lib/python3.10/site-packages/bitsandbytes/libbitsandbytes_cuda116_nocublaslt.so...
[2023-11-15 11:45:48,634] [INFO] [real_accelerator.py:158:get_accelerator] Setting ds_accelerator to cuda (auto detect)
所有modules:
GPTBigCodeModel(
  (wte): Embedding(49153, 6144)
  (wpe): Embedding(8192, 6144)
  (drop): Dropout(p=0.1, inplace=False)
  (h): ModuleList(
    (0): GPTBigCodeBlock(
      (ln_1): LayerNorm((6144,), eps=1e-05, elementwise_affine=True)
      (attn): GPTBigCodeAttention(
        (c_attn): Linear(in_features=6144, out_features=6400, bias=True)
        (c_proj): Linear(in_features=6144, out_features=6144, bias=True)
        (attn_dropout): Dropout(p=0.1, inplace=False)
        (resid_dropout): Dropout(p=0.1, inplace=False)
      )
      (ln_2): LayerNorm((6144,), eps=1e-05, elementwise_affine=True)
      (mlp): GPTBigCodeMLP(
        (c_fc): Linear(in_features=6144, out_features=24576, bias=True)
        (c_proj): Linear(in_features=24576, out_features=6144, bias=True)
        (act): GELUActivation()
        (dropout): Dropout(p=0.1, inplace=False)
      )
    )
    (1): GPTBigCodeBlock(
      (ln_1): LayerNorm((6144,), eps=1e-05, elementwise_affine=True)
      (attn): GPTBigCodeAttention(
        (c_attn): Linear(in_features=6144, out_features=6400, bias=True)
        (c_proj): Linear(in_features=6144, out_features=6144, bias=True)
        (attn_dropout): Dropout(p=0.1, inplace=False)
        (resid_dropout): Dropout(p=0.1, inplace=False)
      )
      (ln_2): LayerNorm((6144,), eps=1e-05, elementwise_affine=True)
      (mlp): GPTBigCodeMLP(
        (c_fc): Linear(in_features=6144, out_features=24576, bias=True)
        (c_proj): Linear(in_features=24576, out_features=6144, bias=True)
        (act): GELUActivation()
        (dropout): Dropout(p=0.1, inplace=False)
      )
    )
    (2): GPTBigCodeBlock(
      (ln_1): LayerNorm((6144,), eps=1e-05, elementwise_affine=True)
      (attn): GPTBigCodeAttention(
        (c_attn): Linear(in_features=6144, out_features=6400, bias=True)
        (c_proj): Linear(in_features=6144, out_features=6144, bias=True)
        (attn_dropout): Dropout(p=0.1, inplace=False)
        (resid_dropout): Dropout(p=0.1, inplace=False)
      )
      (ln_2): LayerNorm((6144,), eps=1e-05, elementwise_affine=True)
      (mlp): GPTBigCodeMLP(
        (c_fc): Linear(in_features=6144, out_features=24576, bias=True)
        (c_proj): Linear(in_features=24576, out_features=6144, bias=True)
        (act): GELUActivation()
        (dropout): Dropout(p=0.1, inplace=False)
      )
    )
    (3): GPTBigCodeBlock(
      (ln_1): LayerNorm((6144,), eps=1e-05, elementwise_affine=True)
      (attn): GPTBigCodeAttention(
        (c_attn): Linear(in_features=6144, out_features=6400, bias=True)
        (c_proj): Linear(in_features=6144, out_features=6144, bias=True)
        (attn_dropout): Dropout(p=0.1, inplace=False)
        (resid_dropout): Dropout(p=0.1, inplace=False)
      )
      (ln_2): LayerNorm((6144,), eps=1e-05, elementwise_affine=True)
      (mlp): GPTBigCodeMLP(
        (c_fc): Linear(in_features=6144, out_features=24576, bias=True)
        (c_proj): Linear(in_features=24576, out_features=6144, bias=True)
        (act): GELUActivation()
        (dropout): Dropout(p=0.1, inplace=False)
      )
    )
    (4): GPTBigCodeBlock(
      (ln_1): LayerNorm((6144,), eps=1e-05, elementwise_affine=True)
      (attn): GPTBigCodeAttention(
        (c_attn): Linear(in_features=6144, out_features=6400, bias=True)
        (c_proj): Linear(in_features=6144, out_features=6144, bias=True)
        (attn_dropout): Dropout(p=0.1, inplace=False)
        (resid_dropout): Dropout(p=0.1, inplace=False)
      )
      (ln_2): LayerNorm((6144,), eps=1e-05, elementwise_affine=True)
      (mlp): GPTBigCodeMLP(
        (c_fc): Linear(in_features=6144, out_features=24576, bias=True)
        (c_proj): Linear(in_features=24576, out_features=6144, bias=True)
        (act): GELUActivation()
        (dropout): Dropout(p=0.1, inplace=False)
      )
    )
    (5): GPTBigCodeBlock(
      (ln_1): LayerNorm((6144,), eps=1e-05, elementwise_affine=True)
      (attn): GPTBigCodeAttention(
        (c_attn): Linear(in_features=6144, out_features=6400, bias=True)
        (c_proj): Linear(in_features=6144, out_features=6144, bias=True)
        (attn_dropout): Dropout(p=0.1, inplace=False)
        (resid_dropout): Dropout(p=0.1, inplace=False)
      )
      (ln_2): LayerNorm((6144,), eps=1e-05, elementwise_affine=True)
      (mlp): GPTBigCodeMLP(
        (c_fc): Linear(in_features=6144, out_features=24576, bias=True)
        (c_proj): Linear(in_features=24576, out_features=6144, bias=True)
        (act): GELUActivation()
        (dropout): Dropout(p=0.1, inplace=False)
      )
    )
    (6): GPTBigCodeBlock(
      (ln_1): LayerNorm((6144,), eps=1e-05, elementwise_affine=True)
      (attn): GPTBigCodeAttention(
        (c_attn): Linear(in_features=6144, out_features=6400, bias=True)
        (c_proj): Linear(in_features=6144, out_features=6144, bias=True)
        (attn_dropout): Dropout(p=0.1, inplace=False)
        (resid_dropout): Dropout(p=0.1, inplace=False)
      )
      (ln_2): LayerNorm((6144,), eps=1e-05, elementwise_affine=True)
      (mlp): GPTBigCodeMLP(
        (c_fc): Linear(in_features=6144, out_features=24576, bias=True)
        (c_proj): Linear(in_features=24576, out_features=6144, bias=True)
        (act): GELUActivation()
        (dropout): Dropout(p=0.1, inplace=False)
      )
    )
    (7): GPTBigCodeBlock(
      (ln_1): LayerNorm((6144,), eps=1e-05, elementwise_affine=True)
      (attn): GPTBigCodeAttention(
        (c_attn): Linear(in_features=6144, out_features=6400, bias=True)
        (c_proj): Linear(in_features=6144, out_features=6144, bias=True)
        (attn_dropout): Dropout(p=0.1, inplace=False)
        (resid_dropout): Dropout(p=0.1, inplace=False)
      )
      (ln_2): LayerNorm((6144,), eps=1e-05, elementwise_affine=True)
      (mlp): GPTBigCodeMLP(
        (c_fc): Linear(in_features=6144, out_features=24576, bias=True)
        (c_proj): Linear(in_features=24576, out_features=6144, bias=True)
        (act): GELUActivation()
        (dropout): Dropout(p=0.1, inplace=False)
      )
    )
    (8): GPTBigCodeBlock(
      (ln_1): LayerNorm((6144,), eps=1e-05, elementwise_affine=True)
      (attn): GPTBigCodeAttention(
        (c_attn): Linear(in_features=6144, out_features=6400, bias=True)
        (c_proj): Linear(in_features=6144, out_features=6144, bias=True)
        (attn_dropout): Dropout(p=0.1, inplace=False)
        (resid_dropout): Dropout(p=0.1, inplace=False)
      )
      (ln_2): LayerNorm((6144,), eps=1e-05, elementwise_affine=True)
      (mlp): GPTBigCodeMLP(
        (c_fc): Linear(in_features=6144, out_features=24576, bias=True)
        (c_proj): Linear(in_features=24576, out_features=6144, bias=True)
        (act): GELUActivation()
        (dropout): Dropout(p=0.1, inplace=False)
      )
    )
    (9): GPTBigCodeBlock(
      (ln_1): LayerNorm((6144,), eps=1e-05, elementwise_affine=True)
      (attn): GPTBigCodeAttention(
        (c_attn): Linear(in_features=6144, out_features=6400, bias=True)
        (c_proj): Linear(in_features=6144, out_features=6144, bias=True)
        (attn_dropout): Dropout(p=0.1, inplace=False)
        (resid_dropout): Dropout(p=0.1, inplace=False)
      )
      (ln_2): LayerNorm((6144,), eps=1e-05, elementwise_affine=True)
      (mlp): GPTBigCodeMLP(
        (c_fc): Linear(in_features=6144, out_features=24576, bias=True)
        (c_proj): Linear(in_features=24576, out_features=6144, bias=True)
        (act): GELUActivation()
        (dropout): Dropout(p=0.1, inplace=False)
      )
    )
    (10): GPTBigCodeBlock(
      (ln_1): LayerNorm((6144,), eps=1e-05, elementwise_affine=True)
      (attn): GPTBigCodeAttention(
        (c_attn): Linear(in_features=6144, out_features=6400, bias=True)
        (c_proj): Linear(in_features=6144, out_features=6144, bias=True)
        (attn_dropout): Dropout(p=0.1, inplace=False)
        (resid_dropout): Dropout(p=0.1, inplace=False)
      )
      (ln_2): LayerNorm((6144,), eps=1e-05, elementwise_affine=True)
      (mlp): GPTBigCodeMLP(
        (c_fc): Linear(in_features=6144, out_features=24576, bias=True)
        (c_proj): Linear(in_features=24576, out_features=6144, bias=True)
        (act): GELUActivation()
        (dropout): Dropout(p=0.1, inplace=False)
      )
    )
    (11): GPTBigCodeBlock(
      (ln_1): LayerNorm((6144,), eps=1e-05, elementwise_affine=True)
      (attn): GPTBigCodeAttention(
        (c_attn): Linear(in_features=6144, out_features=6400, bias=True)
        (c_proj): Linear(in_features=6144, out_features=6144, bias=True)
        (attn_dropout): Dropout(p=0.1, inplace=False)
        (resid_dropout): Dropout(p=0.1, inplace=False)
      )
      (ln_2): LayerNorm((6144,), eps=1e-05, elementwise_affine=True)
      (mlp): GPTBigCodeMLP(
        (c_fc): Linear(in_features=6144, out_features=24576, bias=True)
        (c_proj): Linear(in_features=24576, out_features=6144, bias=True)
        (act): GELUActivation()
        (dropout): Dropout(p=0.1, inplace=False)
      )
    )
    (12): GPTBigCodeBlock(
      (ln_1): LayerNorm((6144,), eps=1e-05, elementwise_affine=True)
      (attn): GPTBigCodeAttention(
        (c_attn): Linear(in_features=6144, out_features=6400, bias=True)
        (c_proj): Linear(in_features=6144, out_features=6144, bias=True)
        (attn_dropout): Dropout(p=0.1, inplace=False)
        (resid_dropout): Dropout(p=0.1, inplace=False)
      )
      (ln_2): LayerNorm((6144,), eps=1e-05, elementwise_affine=True)
      (mlp): GPTBigCodeMLP(
        (c_fc): Linear(in_features=6144, out_features=24576, bias=True)
        (c_proj): Linear(in_features=24576, out_features=6144, bias=True)
        (act): GELUActivation()
        (dropout): Dropout(p=0.1, inplace=False)
      )
    )
    (13): GPTBigCodeBlock(
      (ln_1): LayerNorm((6144,), eps=1e-05, elementwise_affine=True)
      (attn): GPTBigCodeAttention(
        (c_attn): Linear(in_features=6144, out_features=6400, bias=True)
        (c_proj): Linear(in_features=6144, out_features=6144, bias=True)
        (attn_dropout): Dropout(p=0.1, inplace=False)
        (resid_dropout): Dropout(p=0.1, inplace=False)
      )
      (ln_2): LayerNorm((6144,), eps=1e-05, elementwise_affine=True)
      (mlp): GPTBigCodeMLP(
        (c_fc): Linear(in_features=6144, out_features=24576, bias=True)
        (c_proj): Linear(in_features=24576, out_features=6144, bias=True)
        (act): GELUActivation()
        (dropout): Dropout(p=0.1, inplace=False)
      )
    )
    (14): GPTBigCodeBlock(
      (ln_1): LayerNorm((6144,), eps=1e-05, elementwise_affine=True)
      (attn): GPTBigCodeAttention(
        (c_attn): Linear(in_features=6144, out_features=6400, bias=True)
        (c_proj): Linear(in_features=6144, out_features=6144, bias=True)
        (attn_dropout): Dropout(p=0.1, inplace=False)
        (resid_dropout): Dropout(p=0.1, inplace=False)
      )
      (ln_2): LayerNorm((6144,), eps=1e-05, elementwise_affine=True)
      (mlp): GPTBigCodeMLP(
        (c_fc): Linear(in_features=6144, out_features=24576, bias=True)
        (c_proj): Linear(in_features=24576, out_features=6144, bias=True)
        (act): GELUActivation()
        (dropout): Dropout(p=0.1, inplace=False)
      )
    )
    (15): GPTBigCodeBlock(
      (ln_1): LayerNorm((6144,), eps=1e-05, elementwise_affine=True)
      (attn): GPTBigCodeAttention(
        (c_attn): Linear(in_features=6144, out_features=6400, bias=True)
        (c_proj): Linear(in_features=6144, out_features=6144, bias=True)
        (attn_dropout): Dropout(p=0.1, inplace=False)
        (resid_dropout): Dropout(p=0.1, inplace=False)
      )
      (ln_2): LayerNorm((6144,), eps=1e-05, elementwise_affine=True)
      (mlp): GPTBigCodeMLP(
        (c_fc): Linear(in_features=6144, out_features=24576, bias=True)
        (c_proj): Linear(in_features=24576, out_features=6144, bias=True)
        (act): GELUActivation()
        (dropout): Dropout(p=0.1, inplace=False)
      )
    )
    (16): GPTBigCodeBlock(
      (ln_1): LayerNorm((6144,), eps=1e-05, elementwise_affine=True)
      (attn): GPTBigCodeAttention(
        (c_attn): Linear(in_features=6144, out_features=6400, bias=True)
        (c_proj): Linear(in_features=6144, out_features=6144, bias=True)
        (attn_dropout): Dropout(p=0.1, inplace=False)
        (resid_dropout): Dropout(p=0.1, inplace=False)
      )
      (ln_2): LayerNorm((6144,), eps=1e-05, elementwise_affine=True)
      (mlp): GPTBigCodeMLP(
        (c_fc): Linear(in_features=6144, out_features=24576, bias=True)
        (c_proj): Linear(in_features=24576, out_features=6144, bias=True)
        (act): GELUActivation()
        (dropout): Dropout(p=0.1, inplace=False)
      )
    )
    (17): GPTBigCodeBlock(
      (ln_1): LayerNorm((6144,), eps=1e-05, elementwise_affine=True)
      (attn): GPTBigCodeAttention(
        (c_attn): Linear(in_features=6144, out_features=6400, bias=True)
        (c_proj): Linear(in_features=6144, out_features=6144, bias=True)
        (attn_dropout): Dropout(p=0.1, inplace=False)
        (resid_dropout): Dropout(p=0.1, inplace=False)
      )
      (ln_2): LayerNorm((6144,), eps=1e-05, elementwise_affine=True)
      (mlp): GPTBigCodeMLP(
        (c_fc): Linear(in_features=6144, out_features=24576, bias=True)
        (c_proj): Linear(in_features=24576, out_features=6144, bias=True)
        (act): GELUActivation()
        (dropout): Dropout(p=0.1, inplace=False)
      )
    )
    (18): GPTBigCodeBlock(
      (ln_1): LayerNorm((6144,), eps=1e-05, elementwise_affine=True)
      (attn): GPTBigCodeAttention(
        (c_attn): Linear(in_features=6144, out_features=6400, bias=True)
        (c_proj): Linear(in_features=6144, out_features=6144, bias=True)
        (attn_dropout): Dropout(p=0.1, inplace=False)
        (resid_dropout): Dropout(p=0.1, inplace=False)
      )
      (ln_2): LayerNorm((6144,), eps=1e-05, elementwise_affine=True)
      (mlp): GPTBigCodeMLP(
        (c_fc): Linear(in_features=6144, out_features=24576, bias=True)
        (c_proj): Linear(in_features=24576, out_features=6144, bias=True)
        (act): GELUActivation()
        (dropout): Dropout(p=0.1, inplace=False)
      )
    )
    (19): GPTBigCodeBlock(
      (ln_1): LayerNorm((6144,), eps=1e-05, elementwise_affine=True)
      (attn): GPTBigCodeAttention(
        (c_attn): Linear(in_features=6144, out_features=6400, bias=True)
        (c_proj): Linear(in_features=6144, out_features=6144, bias=True)
        (attn_dropout): Dropout(p=0.1, inplace=False)
        (resid_dropout): Dropout(p=0.1, inplace=False)
      )
      (ln_2): LayerNorm((6144,), eps=1e-05, elementwise_affine=True)
      (mlp): GPTBigCodeMLP(
        (c_fc): Linear(in_features=6144, out_features=24576, bias=True)
        (c_proj): Linear(in_features=24576, out_features=6144, bias=True)
        (act): GELUActivation()
        (dropout): Dropout(p=0.1, inplace=False)
      )
    )
    (20): GPTBigCodeBlock(
      (ln_1): LayerNorm((6144,), eps=1e-05, elementwise_affine=True)
      (attn): GPTBigCodeAttention(
        (c_attn): Linear(in_features=6144, out_features=6400, bias=True)
        (c_proj): Linear(in_features=6144, out_features=6144, bias=True)
        (attn_dropout): Dropout(p=0.1, inplace=False)
        (resid_dropout): Dropout(p=0.1, inplace=False)
      )
      (ln_2): LayerNorm((6144,), eps=1e-05, elementwise_affine=True)
      (mlp): GPTBigCodeMLP(
        (c_fc): Linear(in_features=6144, out_features=24576, bias=True)
        (c_proj): Linear(in_features=24576, out_features=6144, bias=True)
        (act): GELUActivation()
        (dropout): Dropout(p=0.1, inplace=False)
      )
    )
    (21): GPTBigCodeBlock(
      (ln_1): LayerNorm((6144,), eps=1e-05, elementwise_affine=True)
      (attn): GPTBigCodeAttention(
        (c_attn): Linear(in_features=6144, out_features=6400, bias=True)
        (c_proj): Linear(in_features=6144, out_features=6144, bias=True)
        (attn_dropout): Dropout(p=0.1, inplace=False)
        (resid_dropout): Dropout(p=0.1, inplace=False)
      )
      (ln_2): LayerNorm((6144,), eps=1e-05, elementwise_affine=True)
      (mlp): GPTBigCodeMLP(
        (c_fc): Linear(in_features=6144, out_features=24576, bias=True)
        (c_proj): Linear(in_features=24576, out_features=6144, bias=True)
        (act): GELUActivation()
        (dropout): Dropout(p=0.1, inplace=False)
      )
    )
    (22): GPTBigCodeBlock(
      (ln_1): LayerNorm((6144,), eps=1e-05, elementwise_affine=True)
      (attn): GPTBigCodeAttention(
        (c_attn): Linear(in_features=6144, out_features=6400, bias=True)
        (c_proj): Linear(in_features=6144, out_features=6144, bias=True)
        (attn_dropout): Dropout(p=0.1, inplace=False)
        (resid_dropout): Dropout(p=0.1, inplace=False)
      )
      (ln_2): LayerNorm((6144,), eps=1e-05, elementwise_affine=True)
      (mlp): GPTBigCodeMLP(
        (c_fc): Linear(in_features=6144, out_features=24576, bias=True)
        (c_proj): Linear(in_features=24576, out_features=6144, bias=True)
        (act): GELUActivation()
        (dropout): Dropout(p=0.1, inplace=False)
      )
    )
    (23): GPTBigCodeBlock(
      (ln_1): LayerNorm((6144,), eps=1e-05, elementwise_affine=True)
      (attn): GPTBigCodeAttention(
        (c_attn): Linear(in_features=6144, out_features=6400, bias=True)
        (c_proj): Linear(in_features=6144, out_features=6144, bias=True)
        (attn_dropout): Dropout(p=0.1, inplace=False)
        (resid_dropout): Dropout(p=0.1, inplace=False)
      )
      (ln_2): LayerNorm((6144,), eps=1e-05, elementwise_affine=True)
      (mlp): GPTBigCodeMLP(
        (c_fc): Linear(in_features=6144, out_features=24576, bias=True)
        (c_proj): Linear(in_features=24576, out_features=6144, bias=True)
        (act): GELUActivation()
        (dropout): Dropout(p=0.1, inplace=False)
      )
    )
    (24): GPTBigCodeBlock(
      (ln_1): LayerNorm((6144,), eps=1e-05, elementwise_affine=True)
      (attn): GPTBigCodeAttention(
        (c_attn): Linear(in_features=6144, out_features=6400, bias=True)
        (c_proj): Linear(in_features=6144, out_features=6144, bias=True)
        (attn_dropout): Dropout(p=0.1, inplace=False)
        (resid_dropout): Dropout(p=0.1, inplace=False)
      )
      (ln_2): LayerNorm((6144,), eps=1e-05, elementwise_affine=True)
      (mlp): GPTBigCodeMLP(
        (c_fc): Linear(in_features=6144, out_features=24576, bias=True)
        (c_proj): Linear(in_features=24576, out_features=6144, bias=True)
        (act): GELUActivation()
        (dropout): Dropout(p=0.1, inplace=False)
      )
    )
    (25): GPTBigCodeBlock(
      (ln_1): LayerNorm((6144,), eps=1e-05, elementwise_affine=True)
      (attn): GPTBigCodeAttention(
        (c_attn): Linear(in_features=6144, out_features=6400, bias=True)
        (c_proj): Linear(in_features=6144, out_features=6144, bias=True)
        (attn_dropout): Dropout(p=0.1, inplace=False)
        (resid_dropout): Dropout(p=0.1, inplace=False)
      )
      (ln_2): LayerNorm((6144,), eps=1e-05, elementwise_affine=True)
      (mlp): GPTBigCodeMLP(
        (c_fc): Linear(in_features=6144, out_features=24576, bias=True)
        (c_proj): Linear(in_features=24576, out_features=6144, bias=True)
        (act): GELUActivation()
        (dropout): Dropout(p=0.1, inplace=False)
      )
    )
    (26): GPTBigCodeBlock(
      (ln_1): LayerNorm((6144,), eps=1e-05, elementwise_affine=True)
      (attn): GPTBigCodeAttention(
        (c_attn): Linear(in_features=6144, out_features=6400, bias=True)
        (c_proj): Linear(in_features=6144, out_features=6144, bias=True)
        (attn_dropout): Dropout(p=0.1, inplace=False)
        (resid_dropout): Dropout(p=0.1, inplace=False)
      )
      (ln_2): LayerNorm((6144,), eps=1e-05, elementwise_affine=True)
      (mlp): GPTBigCodeMLP(
        (c_fc): Linear(in_features=6144, out_features=24576, bias=True)
        (c_proj): Linear(in_features=24576, out_features=6144, bias=True)
        (act): GELUActivation()
        (dropout): Dropout(p=0.1, inplace=False)
      )
    )
    (27): GPTBigCodeBlock(
      (ln_1): LayerNorm((6144,), eps=1e-05, elementwise_affine=True)
      (attn): GPTBigCodeAttention(
        (c_attn): Linear(in_features=6144, out_features=6400, bias=True)
        (c_proj): Linear(in_features=6144, out_features=6144, bias=True)
        (attn_dropout): Dropout(p=0.1, inplace=False)
        (resid_dropout): Dropout(p=0.1, inplace=False)
      )
      (ln_2): LayerNorm((6144,), eps=1e-05, elementwise_affine=True)
      (mlp): GPTBigCodeMLP(
        (c_fc): Linear(in_features=6144, out_features=24576, bias=True)
        (c_proj): Linear(in_features=24576, out_features=6144, bias=True)
        (act): GELUActivation()
        (dropout): Dropout(p=0.1, inplace=False)
      )
    )
    (28): GPTBigCodeBlock(
      (ln_1): LayerNorm((6144,), eps=1e-05, elementwise_affine=True)
      (attn): GPTBigCodeAttention(
        (c_attn): Linear(in_features=6144, out_features=6400, bias=True)
        (c_proj): Linear(in_features=6144, out_features=6144, bias=True)
        (attn_dropout): Dropout(p=0.1, inplace=False)
        (resid_dropout): Dropout(p=0.1, inplace=False)
      )
      (ln_2): LayerNorm((6144,), eps=1e-05, elementwise_affine=True)
      (mlp): GPTBigCodeMLP(
        (c_fc): Linear(in_features=6144, out_features=24576, bias=True)
        (c_proj): Linear(in_features=24576, out_features=6144, bias=True)
        (act): GELUActivation()
        (dropout): Dropout(p=0.1, inplace=False)
      )
    )
    (29): GPTBigCodeBlock(
      (ln_1): LayerNorm((6144,), eps=1e-05, elementwise_affine=True)
      (attn): GPTBigCodeAttention(
        (c_attn): Linear(in_features=6144, out_features=6400, bias=True)
        (c_proj): Linear(in_features=6144, out_features=6144, bias=True)
        (attn_dropout): Dropout(p=0.1, inplace=False)
        (resid_dropout): Dropout(p=0.1, inplace=False)
      )
      (ln_2): LayerNorm((6144,), eps=1e-05, elementwise_affine=True)
      (mlp): GPTBigCodeMLP(
        (c_fc): Linear(in_features=6144, out_features=24576, bias=True)
        (c_proj): Linear(in_features=24576, out_features=6144, bias=True)
        (act): GELUActivation()
        (dropout): Dropout(p=0.1, inplace=False)
      )
    )
    (30): GPTBigCodeBlock(
      (ln_1): LayerNorm((6144,), eps=1e-05, elementwise_affine=True)
      (attn): GPTBigCodeAttention(
        (c_attn): Linear(in_features=6144, out_features=6400, bias=True)
        (c_proj): Linear(in_features=6144, out_features=6144, bias=True)
        (attn_dropout): Dropout(p=0.1, inplace=False)
        (resid_dropout): Dropout(p=0.1, inplace=False)
      )
      (ln_2): LayerNorm((6144,), eps=1e-05, elementwise_affine=True)
      (mlp): GPTBigCodeMLP(
        (c_fc): Linear(in_features=6144, out_features=24576, bias=True)
        (c_proj): Linear(in_features=24576, out_features=6144, bias=True)
        (act): GELUActivation()
        (dropout): Dropout(p=0.1, inplace=False)
      )
    )
    (31): GPTBigCodeBlock(
      (ln_1): LayerNorm((6144,), eps=1e-05, elementwise_affine=True)
      (attn): GPTBigCodeAttention(
        (c_attn): Linear(in_features=6144, out_features=6400, bias=True)
        (c_proj): Linear(in_features=6144, out_features=6144, bias=True)
        (attn_dropout): Dropout(p=0.1, inplace=False)
        (resid_dropout): Dropout(p=0.1, inplace=False)
      )
      (ln_2): LayerNorm((6144,), eps=1e-05, elementwise_affine=True)
      (mlp): GPTBigCodeMLP(
        (c_fc): Linear(in_features=6144, out_features=24576, bias=True)
        (c_proj): Linear(in_features=24576, out_features=6144, bias=True)
        (act): GELUActivation()
        (dropout): Dropout(p=0.1, inplace=False)
      )
    )
    (32): GPTBigCodeBlock(
      (ln_1): LayerNorm((6144,), eps=1e-05, elementwise_affine=True)
      (attn): GPTBigCodeAttention(
        (c_attn): Linear(in_features=6144, out_features=6400, bias=True)
        (c_proj): Linear(in_features=6144, out_features=6144, bias=True)
        (attn_dropout): Dropout(p=0.1, inplace=False)
        (resid_dropout): Dropout(p=0.1, inplace=False)
      )
      (ln_2): LayerNorm((6144,), eps=1e-05, elementwise_affine=True)
      (mlp): GPTBigCodeMLP(
        (c_fc): Linear(in_features=6144, out_features=24576, bias=True)
        (c_proj): Linear(in_features=24576, out_features=6144, bias=True)
        (act): GELUActivation()
        (dropout): Dropout(p=0.1, inplace=False)
      )
    )
    (33): GPTBigCodeBlock(
      (ln_1): LayerNorm((6144,), eps=1e-05, elementwise_affine=True)
      (attn): GPTBigCodeAttention(
        (c_attn): Linear(in_features=6144, out_features=6400, bias=True)
        (c_proj): Linear(in_features=6144, out_features=6144, bias=True)
        (attn_dropout): Dropout(p=0.1, inplace=False)
        (resid_dropout): Dropout(p=0.1, inplace=False)
      )
      (ln_2): LayerNorm((6144,), eps=1e-05, elementwise_affine=True)
      (mlp): GPTBigCodeMLP(
        (c_fc): Linear(in_features=6144, out_features=24576, bias=True)
        (c_proj): Linear(in_features=24576, out_features=6144, bias=True)
        (act): GELUActivation()
        (dropout): Dropout(p=0.1, inplace=False)
      )
    )
    (34): GPTBigCodeBlock(
      (ln_1): LayerNorm((6144,), eps=1e-05, elementwise_affine=True)
      (attn): GPTBigCodeAttention(
        (c_attn): Linear(in_features=6144, out_features=6400, bias=True)
        (c_proj): Linear(in_features=6144, out_features=6144, bias=True)
        (attn_dropout): Dropout(p=0.1, inplace=False)
        (resid_dropout): Dropout(p=0.1, inplace=False)
      )
      (ln_2): LayerNorm((6144,), eps=1e-05, elementwise_affine=True)
      (mlp): GPTBigCodeMLP(
        (c_fc): Linear(in_features=6144, out_features=24576, bias=True)
        (c_proj): Linear(in_features=24576, out_features=6144, bias=True)
        (act): GELUActivation()
        (dropout): Dropout(p=0.1, inplace=False)
      )
    )
    (35): GPTBigCodeBlock(
      (ln_1): LayerNorm((6144,), eps=1e-05, elementwise_affine=True)
      (attn): GPTBigCodeAttention(
        (c_attn): Linear(in_features=6144, out_features=6400, bias=True)
        (c_proj): Linear(in_features=6144, out_features=6144, bias=True)
        (attn_dropout): Dropout(p=0.1, inplace=False)
        (resid_dropout): Dropout(p=0.1, inplace=False)
      )
      (ln_2): LayerNorm((6144,), eps=1e-05, elementwise_affine=True)
      (mlp): GPTBigCodeMLP(
        (c_fc): Linear(in_features=6144, out_features=24576, bias=True)
        (c_proj): Linear(in_features=24576, out_features=6144, bias=True)
        (act): GELUActivation()
        (dropout): Dropout(p=0.1, inplace=False)
      )
    )
    (36): GPTBigCodeBlock(
      (ln_1): LayerNorm((6144,), eps=1e-05, elementwise_affine=True)
      (attn): GPTBigCodeAttention(
        (c_attn): Linear(in_features=6144, out_features=6400, bias=True)
        (c_proj): Linear(in_features=6144, out_features=6144, bias=True)
        (attn_dropout): Dropout(p=0.1, inplace=False)
        (resid_dropout): Dropout(p=0.1, inplace=False)
      )
      (ln_2): LayerNorm((6144,), eps=1e-05, elementwise_affine=True)
      (mlp): GPTBigCodeMLP(
        (c_fc): Linear(in_features=6144, out_features=24576, bias=True)
        (c_proj): Linear(in_features=24576, out_features=6144, bias=True)
        (act): GELUActivation()
        (dropout): Dropout(p=0.1, inplace=False)
      )
    )
    (37): GPTBigCodeBlock(
      (ln_1): LayerNorm((6144,), eps=1e-05, elementwise_affine=True)
      (attn): GPTBigCodeAttention(
        (c_attn): Linear(in_features=6144, out_features=6400, bias=True)
        (c_proj): Linear(in_features=6144, out_features=6144, bias=True)
        (attn_dropout): Dropout(p=0.1, inplace=False)
        (resid_dropout): Dropout(p=0.1, inplace=False)
      )
      (ln_2): LayerNorm((6144,), eps=1e-05, elementwise_affine=True)
      (mlp): GPTBigCodeMLP(
        (c_fc): Linear(in_features=6144, out_features=24576, bias=True)
        (c_proj): Linear(in_features=24576, out_features=6144, bias=True)
        (act): GELUActivation()
        (dropout): Dropout(p=0.1, inplace=False)
      )
    )
    (38): GPTBigCodeBlock(
      (ln_1): LayerNorm((6144,), eps=1e-05, elementwise_affine=True)
      (attn): GPTBigCodeAttention(
        (c_attn): Linear(in_features=6144, out_features=6400, bias=True)
        (c_proj): Linear(in_features=6144, out_features=6144, bias=True)
        (attn_dropout): Dropout(p=0.1, inplace=False)
        (resid_dropout): Dropout(p=0.1, inplace=False)
      )
      (ln_2): LayerNorm((6144,), eps=1e-05, elementwise_affine=True)
      (mlp): GPTBigCodeMLP(
        (c_fc): Linear(in_features=6144, out_features=24576, bias=True)
        (c_proj): Linear(in_features=24576, out_features=6144, bias=True)
        (act): GELUActivation()
        (dropout): Dropout(p=0.1, inplace=False)
      )
    )
    (39): GPTBigCodeBlock(
      (ln_1): LayerNorm((6144,), eps=1e-05, elementwise_affine=True)
      (attn): GPTBigCodeAttention(
        (c_attn): Linear(in_features=6144, out_features=6400, bias=True)
        (c_proj): Linear(in_features=6144, out_features=6144, bias=True)
        (attn_dropout): Dropout(p=0.1, inplace=False)
        (resid_dropout): Dropout(p=0.1, inplace=False)
      )
      (ln_2): LayerNorm((6144,), eps=1e-05, elementwise_affine=True)
      (mlp): GPTBigCodeMLP(
        (c_fc): Linear(in_features=6144, out_features=24576, bias=True)
        (c_proj): Linear(in_features=24576, out_features=6144, bias=True)
        (act): GELUActivation()
        (dropout): Dropout(p=0.1, inplace=False)
      )
    )
  )
  (ln_f): LayerNorm((6144,), eps=1e-05, elementwise_affine=True)
)

可以进行LoRA微调的modules:
[]
